checkpoint0.pth (torch_old, 2399 bytes, 3 tensors)

fc1.weight f4 [16, 23]
0	0x3f2c096b	0.6720187
1	0x3f08cc6f	0.5343694
2	0x3ee7ad57	0.45249435
3	0xbda35236	-0.07974665
4	0x3e861f9a	0.26195985
5	0xbf28791d	-0.65809804
6	0xbd08f871	-0.033440057
7	0xbe6805c2	-0.22658446
8	0xbf899ed0	-1.0751591
9	0x3f4a6ad1	0.7906924
10	0x3f2c280e	0.6724862
11	0xbeef3e36	-0.4672715
12	0xbed3893f	-0.41315648
13	0xbda77944	-0.081774265
14	0xbe8e4107	-0.27783987
15	0x3f47c7b7	0.78039116
16	0xbad4fef1	-0.0016250295
17	0x3feab98b	1.8337873
18	0x3f2c1152	0.6721393
19	0x3f1bc4e0	0.6084728
20	0x3e3a4851	0.18191649
21	0x3f8fa555	1.122233
22	0xbf122de3	-0.5710127
23	0xbebb12b7	-0.36537716
24	0x3ef1804a	0.4716819
25	0x3e257750	0.16158795
26	0xbd6171ec	-0.055040285
27	0xbf13cd63	-0.5773527
28	0xbcc9f9f7	-0.024655325
29	0xbee87322	-0.4540034
30	0x3e098a10	0.13431573
31	0x3e7b4974	0.24539739
32	0xbec9c33d	-0.39406767
33	0xbeffdf97	-0.49975273
34	0xbf012031	-0.50439745
35	0x3e485d1f	0.19566773
36	0x3e937c17	0.2880561
37	0x3f7262c2	0.9468194
38	0xbe10d5ad	-0.14144011
39	0x3f1e8031	0.61914355
40	0xbf159b6c	-0.5844028
41	0xbe8a447f	-0.27005383
42	0xbe96064e	-0.29301685
43	0x3f688cb8	0.9083972
44	0xbdcd640b	-0.10028847
45	0x3e5ba9e6	0.2145153
46	0xbe05e73a	-0.13076487
47	0x3d5cfba2	0.053950913
48	0x3f514d5f	0.81758684
49	0xbe96a2b0	-0.29420996
50	0xbf934e9f	-1.1508368
51	0xbecd9110	-0.40149736
52	0x3daa83b9	0.08325905
53	0xbeaaaaae	-0.33333343
54	0x3e362f58	0.17791498
55	0x3fe5756d	1.792646
56	0x3ed3183b	0.41229424
57	0x3f94c20e	1.1621721
58	0xbf282fd3	-0.65697974
59	0x3f8f4a9d	1.1194645
60	0x3d61827b	0.055056076
61	0x3fc366d9	1.5265762
62	0xbef6b07b	-0.4818152
63	0xbe0c4ac1	-0.13700391
64	0x3f0c1241	0.54715353
65	0x3e4632d2	0.19355324
66	0xbe7b0b77	-0.24516092
67	0x3fb05bd1	1.377802
68	0xbec93652	-0.39299256
69	0xbf1bfa09	-0.609284
70	0x3d3d0038	0.046142787
71	0xbe32303c	-0.17401212
72	0xbd8a6a36	-0.067585394
73	0x3f24045e	0.64069164
74	0x3e4d53c0	0.2005148
75	0xbfbb2823	-1.4621624
76	0x3f22f000	0.6364746
77	0x3f544eee	0.8293294
78	0x3a4bbece	0.00077722676
79	0x3ef57c79	0.47946528
80	0xbea65a7d	-0.32490912
81	0x3e418986	0.18900117
82	0xbeab1a33	-0.33418426
83	0xbe881928	-0.26581693
84	0x3e1e8d84	0.15483671
85	0xbde9b2bf	-0.11411046
86	0xbea62ed0	-0.3245759
87	0x3f9aa90b	1.2082838
88	0x3f8a768d	1.0817429
89	0x3de5bbc5	0.11217455
90	0xbf5dbe17	-0.8661818
91	0x3e7ed820	0.24887133
92	0x3f0e53f6	0.55596864
93	0xbe591bc3	-0.21201997
94	0xbfac9544	-1.3483052
95	0x3eb358cb	0.3502868
96	0xbf7673c0	-0.9627037
97	0xbedeb6f4	-0.43498957
98	0x3f266e9b	0.6501252
99	0xbf757d14	-0.9589398
100	0x3edbd52a	0.4293607
101	0xbee40844	-0.44537556
102	0xbf2cdd48	-0.6752515
103	0xbf04ca22	-0.5187093
104	0xbe85dc89	-0.26144817
105	0xbeb31c39	-0.3498247
106	0x3c924c3e	0.01785862
107	0x3ea4c120	0.32178593
108	0x3e8334d3	0.2562624
109	0xbf3c1c9c	-0.73481154
110	0x3e91a460	0.2844572
111	0x3f094bda	0.53631365
112	0xbf309fbf	-0.68993753
113	0x3f8b307e	1.0874174
114	0x3e7b8a78	0.2456454
115	0x3e0694bd	0.13142677
116	0x3f909996	1.1296871
117	0xbea1082c	-0.31451547
118	0x3f39eb4d	0.72624665
119	0xbe40f3ff	-0.18843077
120	0xbe8fa7c2	-0.28057677
121	0xbf559669	-0.8343263
122	0x3f571dfd	0.84030133
123	0xbef788ca	-0.4834655
124	0xbeb82cbf	-0.3597164
125	0x3f308ba3	0.6896307
126	0xbf5dace9	-0.86591965
127	0x3fc5c990	1.5452137
128	0xbe45c946	-0.19315061
129	0x3fb89a56	1.44221
130	0x3f7a55ad	0.9778698
131	0xbf474742	-0.77843106
132	0x3e570cbc	0.21000952
133	0xbe6858ed	-0.22690172
134	0xbebe7af3	-0.37203178
135	0xbf6b5b98	-0.91936636
136	0xbef100fd	-0.47071066
137	0xbf372a35	-0.7154878
138	0x3ec079ce	0.3759293
139	0x3e27e9e2	0.16397813
140	0x3de2074b	0.11036547
141	0x3e23464a	0.15944782
142	0xbe04e4e2	-0.12977937
143	0xbee047f7	-0.43804905
144	0xbcd1a8fb	-0.025593271
145	0xbe168f85	-0.14703186
146	0xbf1ad2aa	-0.604777
147	0x3eac4d18	0.33652568
148	0xbfa1c5e7	-1.263852
149	0x3fab9ea2	1.3407786
150	0xbed9f214	-0.42567503
151	0xbf2ca826	-0.67444074
152	0x3f0e9017	0.55688614
153	0x3eb98f61	0.36242202
154	0x3e6725f1	0.22573067
155	0xbf39c8b9	-0.72571903
156	0xbf221883	-0.6331865
157	0xbf070c4a	-0.52753127
158	0xbe0ba137	-0.13635717
159	0xbeb65b4e	-0.35616535
160	0x3e970c1c	0.29501426
161	0x3f70db73	0.9408485
162	0xbfc928e4	-1.5715604
163	0xbfbb161d	-1.4616123
164	0x3bdf9fb1	0.0068244566
165	0xbfd01d20	-1.6258888
166	0xbfd383b9	-1.6524574
167	0x3f0a130f	0.5393533
168	0x3f818543	1.0118793
169	0xbe8ed7fc	-0.27899158
170	0xbc9dfa9a	-0.019284535
171	0x3f5f9f06	0.87352026
172	0x3f27a6c0	0.65488815
173	0x3f614096	0.87989175
174	0xbf83a999	-1.0286132
175	0xbf2e908b	-0.68189305
176	0x3f3fde6d	0.7494877
177	0xbe1585b4	-0.14601785
178	0x3ebca871	0.3684726
179	0xbf97b9e8	-1.1853609
180	0xbf5b646f	-0.85700125
181	0xbdc8939d	-0.0979378
182	0x3e7c2f44	0.24627405
183	0xbf8d0b7a	-1.1019127
184	0x3e969073	0.2940708
185	0x3e53c6e1	0.20681335
186	0xbe9e03bc	-0.30862224
187	0x3f8c5c6c	1.0965705
188	0xbe53ea8d	-0.20694943
189	0x3f1ae102	0.60499585
190	0xbf03cbe0	-0.51482964
191	0x3a487e06	0.00076481735
192	0xbe284768	-0.1643349
193	0xbe1946ba	-0.14968386
194	0xbf054b80	-0.5206833
195	0x3ec741ba	0.38917333
196	0xbf035522	-0.5130178
197	0x3e95079d	0.2910737
198	0xbef3b5a4	-0.47599518
199	0xbfea767b	-1.8317407
200	0x3f316c1e	0.693056
201	0x3f3c5a71	0.735755
202	0x3fb283dc	1.394649
203	0xbde6cbf8	-0.11269373
204	0x3e91d6bb	0.2848414
205	0x3f52bd2c	0.82319903
206	0xbdee31fb	-0.11630627
207	0x3f7312d5	0.9495061
208	0x3f8ba2c7	1.0909051
209	0xbf30fb6e	-0.6913365
210	0xbef070b8	-0.46960998
211	0x3f6407ea	0.89074576
212	0x3ec17bf8	0.37789893
213	0xbf071868	-0.52771616
214	0x3ee7e8c3	0.4529477
215	0x3f169151	0.58815485
216	0x3eb3b145	0.35096183
217	0x3e9d22f6	0.30690736
218	0xbe1852ec	-0.14875382
219	0x3f040c29	0.51581055
220	0x3efeea25	0.49788013
221	0x3f190394	0.59771085
222	0x3f51f2a0	0.8201084
223	0xbfbc0bb9	-1.4691077
224	0x3df8e634	0.12153283
225	0xbf24b75b	-0.6434228
226	0xbee681ad	-0.4502081
227	0x3f365782	0.71227276
228	0x3ee69825	0.45037952
229	0x3e3b5220	0.18293047
230	0x3e46d8f7	0.19418703
231	0xbf90f05a	-1.132335
232	0xbf12a09a	-0.5727631
233	0x3f9cb738	1.2243414
234	0x3f131319	0.57451016
235	0xbf30bd11	-0.6903849
236	0xbd8a62f1	-0.06757153
237	0xbed06d07	-0.4070818
238	0x3d68c817	0.056831446
239	0x3f5b8516	0.8574995
240	0xbf987be8	-1.1912813
241	0x3f5258cd	0.8216675
242	0x3f5a76be	0.85337436
243	0x3f45d449	0.77277046
244	0xbe80664f	-0.25078055
245	0x3f2ddc4a	0.6791426
246	0xbe7302a8	-0.23731482
247	0x3db742b8	0.089482725
248	0x3f8e0ba2	1.10973
249	0xbe7dcf94	-0.24786216
250	0xbf1d38e1	-0.61414915
251	0x3d949d6e	0.0725659
252	0x3ea2c4a1	0.3179064
253	0x3f370ae3	0.71500987
254	0x3f84e3e7	1.038205
255	0x3dbb95ab	0.09159406

fc1.bias f4 [16]
0	0xbd1e5aaa	-0.038660683
1	0xbe681559	-0.22664393
2	0xbdf20c0c	-0.11818704
3	0x3e3392cb	0.17536466
4	0x3d205454	0.03914292
5	0xbf927a99	-1.1443664
6	0xbf2f3f56	-0.6845602
7	0x3f8a726f	1.0816172
8	0xbfa7d477	-1.3111714
9	0x3d9158e0	0.0709703
10	0xbf51e5ec	-0.8199146
11	0x3f8edc63	1.1161007
12	0x3f714633	0.9424774
13	0x3f98317d	1.1890103
14	0x3f697c61	0.9120541
15	0x3f264f68	0.64964914

fc2.weight f4 [1, 16]
0	0x3e684092	0.22680882
1	0xbfa1bdf9	-1.26361
2	0xbde6cb05	-0.11269192
3	0xbf202d4b	-0.6256911
4	0x3d5bef61	0.053695086
5	0x3f64de73	0.8940193
6	0xbf08b11d	-0.53395253
7	0x3eb3ddbc	0.35130107
8	0xbddba33e	-0.10724495
9	0xbfbc54af	-1.4713343
10	0x3e884f00	0.26622772
11	0xbbb87561	-0.005629227
12	0xbf9c2892	-1.2199881
13	0x3ee6c0ea	0.45069057
14	0x3f29feef	0.6640462
15	0x3f0cb9a9	0.54970795
