checkpoint1.pth (torch_old, 2399 bytes, 3 tensors)

fc1.weight f4 [16, 23]
00000000: 1003 dc3d df5a cb3e 5266 1740 27fd db3d
00000010: b89b 863e e82c 0bbf 6fde 26bf 9e1b 8a3e
00000020: c676 043f bb4a 97be 46d0 f8bb b4ae 063f
00000030: 17a9 56bf 3d90 8dbd 26cb fc3e 174f ff3e
00000040: 2391 8c3e d30a a33e 1594 5b3e b145 51bf
00000050: e568 6abe bbee 233e da53 f63e 3cc7 3abe
00000060: d21d 833c 2dd9 bdbe 064c 38be 37d1 94be
00000070: 80a5 143e 4121 f53e d43c 173f 7208 173f
00000080: 5fcb 18be 6482 5a3e 78b6 e53e 09f1 a03e
00000090: b1b7 de3e d7c5 0f3e 8cac 303f 4700 e73e
000000a0: 5165 53be 4097 d13e 0d66 04bf ba9d 823f
000000b0: 60ce e6be 296f d5bd b544 13bf fdde 7a3e
000000c0: 1ac0 083b 8d52 c13f 044e 9bbd 0ce6 1bbe
000000d0: dac9 283e 5ed3 b13e 243e d23e 7e83 6a3e
000000e0: c26d adbe 8353 533e d1c4 df3d c177 6c3f
000000f0: 1bc9 01be aa3c e33c 3c00 b3bd f345 34bf
00000100: b993 083f 56d1 6a3f 96eb f53d 5b73 09bf
00000110: c771 303e f35f e9be 0064 c23e 0a4f e5be
00000120: 87f8 6a3e af3f 87be 0de8 153e 74db 153f
00000130: f764 23be 2bca 2c3f a55d 56bf 53ce afbe
00000140: a28f 47bf 9126 613f f55f f0be abcb f13d
00000150: d67e 71bf c351 96bf a545 13bf 11dc 1bbf
00000160: ae8b 803e b10e 023d 9cee edbd 947f 293e
00000170: ee01 27bf 8c05 8a3e beba b8bd 4bb9 be3e
00000180: ae72 273a f90f 43bf 6807 163f 5f57 09bf
00000190: fdb0 dcbe 181c a93f e67e 753e ab9c 26bf
000001a0: d198 6f3f f4fa 0f3f 532d b6bf 83b5 993e
000001b0: 610e 083f 8cff 9abe f194 2cbd 0c35 a03d
000001c0: cf93 99bf fe67 453e 2f89 a73d 083f b83f
000001d0: 45fe f7be 2f4c 8fbd 337d 36be b2d4 8ebf
000001e0: 3296 823f c862 5cbe b810 cc3d d317 8abf
000001f0: 6015 443f ddbd 04be 8624 96bf 093e 92bd
00000200: f150 2d3f f9c2 933e e8d0 52be 3e96 83be
00000210: fadd 6dbf 67e5 a0bf 23c8 933f 8e70 4bbf
00000220: ae66 a5be 1523 ca3e bd9e 38bf 0a03 663e
00000230: 7b3a ecbd 13d7 12bf d40e c7be d5d5 993f
00000240: 7c16 f1be 1964 52bf 96bd b63e fe53 9c3f
00000250: c008 aa3e 93d6 9a3b e3d5 1a3f 5797 573e
00000260: 3573 823f 4e45 ba3d 9741 17be a8e6 cfbd
00000270: fcef c8be f299 613f 2195 9c3e 342a 2f3f
00000280: 643f efbd 3993 0cbf e1ae 11be 147f 783f
00000290: 0ae7 503d 4f23 8bbe 5c4c ebbe b5ee 8d3d
000002a0: f023 523f 9aad 43bf 624e 4fbe e111 2fbf
000002b0: 7f1f e9be d9d1 4c3d 6204 cfbe 0f67 4fbf
000002c0: abe1 313f 48a1 4abe d69b b5bf 0625 143f
000002d0: 0793 2fbe 06bd 51bf b99d 8d3f 0512 1c3f
000002e0: fa2c 8dbf 53da 4d3e 31d1 c4bd c870 8b3e
000002f0: 45b9 e03e de69 bf3e 3994 3d3f 0c94 4d3e
00000300: be9f 32be 24a5 b8bf baec 6fbf 4211 acbe
00000310: e4dc 833d d073 98bf 08be 28bf aacb 0e3e
00000320: f2d3 e93e 9914 8f3d 6f84 603f abfc 5fbe
00000330: b992 9b3d 1aeb 8dbf 1b10 8abf 85a0 ba3e
00000340: c933 81bf 7138 0fbf 6c8c 3c3f ed74 473f
00000350: afc7 10bd 7848 a63d 84c2 773e dcfe 31be
00000360: 3faf 483e 79e7 043f 20e6 c23e 2e84 1cbf
00000370: 8987 723f f317 0cbe fbfb 1ebe 3127 00bf
00000380: d050 08bf 8ead 473e 395c 1dbe 30b0 47bf
00000390: 16cd 17bf fca4 5c3f 0386 06bf 0737 863e
000003a0: 9cb8 94bc 80d5 e3bd b2c7 e63e da45 d3be
000003b0: 24af 03bf 0481 1e3f 8dcf c1be 36f5 47bf
000003c0: 8e29 43bf 23a0 59be 42ea d33e edd6 8d3f
000003d0: 494f af3f 6bc8 093f 2ce4 7f3d e7b5 8b3f
000003e0: 9de8 033e 4ff5 be3e 8c1b d4be 8093 b43e
000003f0: 3c85 923f 0d69 a2bd 1ddb 7f3e c5f9 863e
0.107427716 0.39717767 2.3656201 0.10741644 0.2629068 -0.54365396 -0.65183157 0.26974195
0.51743734 -0.29549202 -0.0075931875 0.52610326 -0.8385176 -0.06912277 0.4937374 0.49865028
0.2745448 0.31844196 0.21443208 -0.81746966 -0.22891577 0.16009037 0.4811085 -0.18240064
0.01600543 -0.37079754 -0.1799775 -0.29065868 0.14516258 0.47876933 0.5907719 0.5899726
-0.1492133 0.21338803 0.44865775 0.31433895 0.4349952 0.14040314 0.69013286 0.451174
-0.20644118 0.40935707 -0.5171822 1.0204384 -0.45079327 -0.10421593 -0.57526714 0.24499126
0.0020866455 1.5103317 -0.0758324 -0.15224475 0.1648325 0.34731573 0.41063035 0.22901723
-0.338728 0.20637326 0.109262116 0.9237023 -0.12674372 0.027738888 -0.08740279 -0.70419234
0.53350407 0.9172567 0.12007825 -0.53691643 0.17230903 -0.45581016 0.3796692 -0.44786865
0.22946368 -0.26415774 0.14639302 0.58537984 -0.15956484 0.67495984 -0.8373664 -0.343371
-0.7795354 0.8794947 -0.4694821 0.11806425 -0.9433416 -1.1743702 -0.57528144 -0.6088267
0.25106567 0.031752292 -0.11617777 0.16552573 -0.6523732 0.26957357 -0.09019993 0.37250742
0.0006387633 -0.7619625 0.5860505 -0.5364894 -0.4310378 1.3211699 0.23974189 -0.65082806
0.93592554 0.562423 -1.4232582 0.30021295 0.5314694 -0.30273092 -0.04213423 0.07822618
-1.1998233 0.19277951 0.081804626 1.4394236 -0.4843618 -0.06996953 -0.17821197 -1.115866
1.0202086 -0.21522057 0.09964126 -1.078852 0.76595116 -0.12963052 -1.1729896 -0.071407385
0.6770163 0.2885969 -0.20587504 -0.25700563 -0.92916834 -1.2570008 1.1545452 -0.7946862
-0.323049 0.3947989 -0.72117215 0.22462097 -0.11534592 -0.5735943 -0.388785 1.2018381
-0.47087467 -0.82183987 0.35691518 1.2213132 0.332098 0.0047252863 0.60482615 0.21053825
1.0191408 0.0909525 -0.14771114 -0.10151416 -0.39245594 0.88125527 0.30582526 0.6842377
-0.11682013 -0.54912144 -0.14226867 0.97068906 0.051001586 -0.27175376 -0.45956695 0.069302954
0.82086086 -0.7643677 -0.20244744 -0.68386656 -0.45531842 0.050004814 -0.4043303 -0.8101663
0.69484967 -0.19788086 -1.4188182 0.57868993 -0.1714593 -0.8192905 1.1063758 0.60964996
-1.1029351 0.20102815 -0.096102126 0.27234483 0.4389135 0.37385458 0.74054295 0.20076007
-0.1744375 -1.4425397 -0.9372059 -0.33606917 0.06438616 -1.1910343 -0.65914965 0.13944879
0.45669514 0.069863506 0.8770208 -0.21873729 0.075963445 -1.1087372 -1.0786165 0.36450592
-1.0093929 -0.559455 0.73651767 0.7791279 -0.035346683 0.08119291 0.24195296 -0.17382377
0.19598101 0.519157 0.38066196 -0.6113919 0.9473806 -0.13681011 -0.1552581 -0.500598
-0.5324831 0.194998 -0.15367211 -0.78003216 -0.5929731 0.86189246 -0.52548236 0.26213858
-0.018154435 -0.11124706 0.4507423 -0.4126423 -0.5143912 0.6191561 -0.3785366 -0.7810854
-0.7623528 -0.21252494 0.41389662 1.1081215 1.3696071 0.5382144 0.06247346 1.0914887
0.12881704 0.3729653 -0.41427267 0.35268784 1.144691 -0.07930193 0.24985929 0.26362434

fc1.bias f4 [16]
00000000: 3a95 72bf c39d 133d 0ffd 653e 929a 91be
00000010: 5de3 e5be 004a 113e c4fc 73bd 1177 5cbe
00000020: 17f2 dbbd 6d55 113f 43bb 90bf 5f9c 3a3f
00000030: f376 b4be a0bf 973e 008e 723f 53d1 61be
-0.9475895 0.036039125 0.22459815 -0.2843824 -0.44900027 0.14188385 -0.059567228 -0.21529795
-0.10739534 0.56770974 -1.1307148 0.72894853 -0.35247 0.29638386 0.94747925 -0.22052507

fc2.weight f4 [1, 16]
00000000: 0f01 a3be cbdc dc3e fd4f a6bf 9d09 87be
00000010: 3c07 843f fbb3 c8be b798 34bf 61f6 aabf
00000020: 67cd 9f3e 088c 8d3c c004 40be 887d 68bf
00000030: b96a 0f3f bdd0 cc3d 515d 2cbe 7300 9bbf
-0.31836745 0.43137202 -1.299316 -0.26374522 1.0314708 -0.39199814 -0.70545524 -1.3356439
0.31211397 0.017278686 -0.18751812 -0.90816545 0.5602222 0.10000751 -0.16832472 -1.2109512
