checkpoint1.pth (torch_old, 2399 bytes, 3 tensors)

fc1.weight f4 [16, 23]
0.2489961 0.12600751 1.1766148 -0.51767033 0.6548175 -1.5531774 -0.73589396 1.1085129
-0.055453192 -0.31625834 -0.7477894 0.80516887 -1.0228308 -0.38365138 0.25348788 0.24268241
-0.266226 0.38256887 0.510789 -1.0155861 -0.09133416 0.018360592 0.10039165 -0.38836005
-0.13282238 -0.3538229 -0.59813046 -0.48632056 -0.5665807 0.18188666 0.24877167 0.3766134
-0.2780486 -0.120206945 0.2470935 -0.2576661 0.87242764 0.046274096 0.14904353 0.44159466
-0.4498686 0.7276661 -0.5597175 0.036621887 -0.68102556 -0.59015906 -0.6901113 -0.243042
0.16686796 1.4198052 0.77412426 -0.5515874 -0.380326 -0.32191244 -0.11466143 0.9298071
-0.37868837 0.11143928 -0.05359437 -0.15166485 0.2527973 0.11134721 -0.237141 0.7255152
0.41337383 1.5660682 0.6295787 -0.53174067 0.5795946 -1.1481314 0.3768292 -0.83270144
0.31424326 -0.54113454 -0.052261934 0.02265816 -0.28926486 0.46495005 -0.5732098 -0.083026655
-1.3773104 1.1854547 -0.5589374 -0.108183116 -1.6417114 -0.82294786 0.043410894 -0.48881784
0.19529665 0.07994862 0.3934725 0.66609144 -0.42830282 0.2837997 -0.5218007 0.48007265
0.7550836 -0.22609791 0.35020185 -0.5060834 -0.22078706 0.809981 0.13315502 0.36891487
0.3202162 0.5802794 -1.1016086 0.42800334 0.48269305 -0.37220848 0.4653889 0.24339664
-0.4065343 0.75293684 0.63456005 0.32592967 -0.6772561 0.3626857 0.32740384 -1.0526475
1.2769486 -0.037241284 -0.7677651 -0.05213128 -0.15599492 -0.35212728 -1.122399 -0.14300904
0.6696909 0.39145705 0.5570973 -0.53242576 -0.61353314 -0.54386723 0.592888 -0.45381662
-0.53227174 0.3933603 -0.70725864 0.35495925 0.13738896 -0.73639995 -0.54519975 0.45827115
-0.89937156 -1.5886521 -0.4642408 0.47479907 0.73784804 -0.124361895 0.70452815 -0.16174564
1.0046761 -0.1072855 -0.3478421 -0.690251 -0.082528956 0.85401535 -0.09970883 1.1404853
-0.13981251 -0.30159277 0.24489678 0.2858267 -0.4897881 0.41205937 -0.84916186 -0.21919854
0.30334976 -1.0305789 -0.062881224 -0.9768103 -0.14383717 0.5977807 0.24308568 0.058976553
-0.03836971 -0.29152906 -1.2673514 0.8269657 0.6992885 -0.16169025 0.3810508 0.25647315
-1.0603523 0.61698216 -0.57113147 1.0268291 -0.57768494 0.087907955 1.2123278 0.68463534
-0.7555056 -0.8431077 -0.26703787 -0.18189785 -0.08531831 -0.89498544 -0.4897957 0.6889861
0.5359991 0.04781385 0.70668745 -0.3583517 0.487479 -0.7223535 -0.09627684 0.5122165
-0.8021067 -0.43282583 0.31319836 0.6567322 -0.33146638 -0.1564149 -0.62868917 0.7323391
0.41166863 0.26031166 0.90731966 -0.86581534 0.011429641 -0.6236105 -0.764394 -0.042226173
-0.16530517 0.21106005 -0.5106205 0.041745715 -1.078066 -0.38258594 0.17036009 -0.71389383
0.059793934 0.614877 -0.2509132 -0.22674856 -0.29476658 0.5527948 -0.17628255 -0.45970985
-0.029683627 -0.6120941 0.18294238 0.76962495 0.7992853 0.704172 0.19924171 0.6042988
1.1325023 0.30772695 0.24697392 -0.12102604 1.246323 -0.22945967 -0.08438425 0.06262696
00000000: d5f8 7e3e 1d08 013e 509b 963f 0b86 04bf
00000010: 1fa2 273f 84ce c6bf 8c63 3cbf c0e3 8d3f
00000020: e322 63bd 9dec a1be 206f 3fbf 8c1f 4e3f
00000030: 1fec 82bf f46d c4be 2ac9 813e bd81 783e
00000040: c64e 88be 11e0 c33e 11c3 023f bafe 81bf
00000050: 670d bbbd f468 963c 239a cd3d 21d7 c6be
00000060: 9702 08be 4628 b5be 141f 19bf 02ff f8be
00000070: 6f0b 11bf 7f40 3a3e 00be 7e3e 79d3 c03e
00000080: 635c 8ebe 0f2f f6bd 1406 7d3e d0ec 83be
00000090: 6b57 5f3f e889 3d3d de9e 183e b218 e23e
000000a0: 2d55 e6be 5348 3a3f a549 0fbf d500 163d
000000b0: b157 2ebf aa14 17bf 22ab 30bf 01e0 78be
000000c0: 6fdf 2a3e 2dbc b53f 022d 463f d534 0dbf
000000d0: 17ba c2be b5d1 a4be 9dd3 eabd d707 6e3f
000000e0: 71e3 c1be 473a e43d c585 5bbd 084e 1bbe
000000f0: a66e 813e 020a e43d 17d5 72be 5dbb 393f
00000100: bca5 d33e ec74 c83f 122c 213f 2820 08bf
00000110: 5060 143f f8f5 92bf c2ef c03e ec2b 55bf
00000120: 7ee4 a03e cb87 0abf 9c10 56bd 9b9d b93c
00000130: 861a 94be ef0d ee3e e1bd 12bf e109 aabd
00000140: b54b b0bf fbbc 973f 8516 0fbf 1c8f ddbd
00000150: 9923 d2bf b6ac 52bf 9fcf 313d 5546 fabe
00000160: d8fb 473e 1abc a33d 3a75 c93e f884 2a3f
00000170: 824a dbbe 324e 913e bb94 05bf 15cc f53e
00000180: 294d 413f 3686 67be a84d b33e af8e 01bf
00000190: 0116 62be ea5a 4f3f ca59 083e 69e2 bc3e
000001a0: 61f3 a33e 318d 143f 8301 8dbf 4123 db3e
000001b0: 8b23 f73e 1c92 bebe 7447 ee3e f83c 793e
000001c0: 4425 d0be 78c0 403f 8772 223f 41e0 a63e
000001d0: a860 2dbf f1b1 b93e 7aa1 a73e 27bd 86bf
000001e0: 0d73 a33f 518a 18bd 418c 44bf 9c87 55bd
000001f0: 22bd 1fbe 074a b4be c5aa 8fbf f670 12be
00000200: dd70 2b3f 0f6d c83e ee9d 0e3f 0e4d 08bf
00000210: 8210 1dbf e23a 0bbf 82c7 173f a75a e8be
00000220: f642 08bf 8566 c93e e70e 35bf 38bd b53e
00000230: b1af 0c3e b584 3cbf 3692 0bbf 84a2 ea3e
00000240: 373d 66bf f458 cbbf f8b0 edbe dd18 f33e
00000250: 9ce3 3c3f 73b1 febd f55b 343f a6a0 25be
00000260: 3a99 803f 80b8 dbbd 5c18 b2be 4ab4 30bf
00000270: f104 a9bd c0a0 5a3f 2534 ccbd 6cfb 913f
00000280: 032b 0fbe 5e6a 9abe 39c6 7a3e e157 923e
00000290: 81c5 fabe 72f9 d23e ac62 59bf 9575 60be
000002a0: a950 9b3e 02ea 83bf dfc7 80bd 3d10 7abf
000002b0: 0d4a 13be 2808 193f 74eb 783e 6691 713d
000002c0: 8f29 1dbd 4c43 95be 9238 a2bf 06b4 533f
000002d0: 9204 333f 2192 25be 1719 c33e 7350 833e
000002e0: a0b9 87bf 8bf2 1d3f ac35 12bf 236f 833f
000002f0: 29e3 13bf 1609 b43d 8f2d 9b3f 4344 2f3f
00000300: d168 41bf e8d5 57bf 30b9 88be 6e43 3abe
00000310: 5ebb aebd c41d 65bf 81c6 fabe 6561 303f
00000320: 3d37 093f 75d8 433d 78e9 343f e079 b7be
00000330: d996 f93e 29ec 38bf cb2c c5bd 9f20 033f
00000340: dd56 4dbf 599b ddbe 895b a03e 9a1f 283f
00000350: f6b5 a9be 3a2b 20be c6f1 20bf 937a 3b3f
00000360: 3bc6 d23e 9247 853e 1a46 683f 13a6 5dbf
00000370: 6443 3b3c f0a4 1fbf 53af 43bf 5af5 2cbd
00000380: c245 29be 2020 583e 06b8 02bf 8efd 2a3d
00000390: 11fe 89bf 4ee2 c3be e072 2e3e bfc1 36bf
000003a0: 7cea 743d 9468 1d3f b277 80be c630 68be
000003b0: a5eb 96be f683 0d3f 6a83 34be 175f ebbe
000003c0: 142b f3bc 33b2 1cbf 3f55 3b3e 2406 453f
000003d0: f69d 4c3f 9e44 343f 0506 4c3e 53b3 1a3f
000003e0: d6f5 903f 638e 9d3e bbe6 7c3e 80dc f7bd
000003f0: 8387 9f3f 7af7 6abe a6d1 acbd 9042 803d

fc1.bias f4 [16]
-1.0599494 -0.2587332 0.025233842 0.6757792 -0.69362724 -0.26439914 -0.6392203 -0.6192914
0.7663166 0.7041779 -0.78800297 0.9359237 -0.73265094 0.47177994 0.7786484 -0.42332706
00000000: 6cac 87bf ae78 84be 34b7 ce3c deff 2c3f
00000010: 8e91 31bf 535f 87be f1a3 23bf e289 1ebf
00000020: 532d 443f 0145 343f 90ba 49bf b298 6f3f
00000030: 038f 3bbf 248d f13e 8055 473f 53be d8be

fc2.weight f4 [1, 16]
-1.098593 0.36274007 -0.6385697 -0.71126187 0.59954804 -0.8285161 -0.94520384 -0.693805
0.6376411 0.29684645 -0.8528761 -0.30094543 0.11747916 0.22016256 -0.590683 -1.3617537
00000000: b29e 8cbf 11b9 b93e 4e79 23bf 4215 36bf
00000010: fb7b 193f a219 54bf e1f8 71bf 349d 31bf
00000020: 723c 233f 42fc 973e 1756 5abf 8515 9abe
00000030: ea98 f03d 4b72 613e 0037 17bf f24d aebf
