checkpoint4.pth (torch_old, 2399 bytes, 3 tensors)

fc1.weight f4 [16, 23]
00000000: 5ca0 723f 9da7 1ebd 2605 c33e e679 0c3f
00000010: cc81 8a3e 25da 7dbe dee5 d1bd 4d40 233f
00000020: 0861 463d e2c5 ab3e 4855 8abf 59b7 78bf
00000030: 71fa bc3d 9998 9abf 84c7 37bf 6ddf ef3b
00000040: ffef 82be 0b42 ccbe 68b3 73be 801a 60bf
00000050: 5b23 743c 3881 873e 7b4e 29bf d9f2 78bf
00000060: b90a 0f3f 505f 093f bde9 053e cd23 82bf
00000070: 4f8f 653f 768c 8c3e 43a5 82be cbfd a73e
00000080: 3f9f 91bf bbdd 82bf d531 39be d17d 163f
00000090: 56cd aa3f 1e6f c0be 6c49 76bf 876c 2b3f
000000a0: 1d35 c4be 2c8f 7e3f 068c b9bc 07a7 eabd
000000b0: f98b 253e e861 5cbd a8f2 66bc c288 633e
000000c0: 3a3c fc3d 7746 f63d 97bd 5abf 64f1 ebbe
000000d0: 01ef 29bf 0374 37bf 638e 0a3f 47a2 19bf
000000e0: 01fa 1dbf f8d8 e23e d237 cd3e 9537 97be
000000f0: 1f66 193e aa25 a0be dd91 183f 23d3 793c
00000100: 80a6 f13e f49d 783e f662 cfbe c6f9 a43e
00000110: 6846 8ebf 489b 3c3f 6c7d 893f 57d2 a5be
00000120: a7eb 2f3d dd59 293e ce15 b4bf e747 8dbe
00000130: 72d3 14be b8c8 ac3e 1d5f 6fbd a704 5abe
00000140: e86e c63d 7daf a43d c682 07bf b3ca 1dbf
00000150: 61e5 cf3d 9cde d8be b658 e73c 61dd 5bbf
00000160: a261 49bd e9b2 5b3f 3145 1d3e df4a ffbe
00000170: 4937 683f 0918 9fbe e96f 61bd 1521 76bf
00000180: 6a5d 8e3f edef 5cbe 6ba8 183f b408 ebbe
00000190: e9c5 13bf 42ce 12bf eda5 913c 6bc7 033e
000001a0: 4f9e 33bf 7ca6 703d 916b 523f 4cd0 6e3e
000001b0: ca96 563f de5c 3fbe de43 ae3f 5291 bcbf
000001c0: 1a7b 5ebf 6451 ee3d b3ba 0e3f 6972 8bbf
000001d0: 34b9 cdbe 22c4 11bf b3a1 bcbf 49c1 54bf
000001e0: 0a3c bbbf e537 bdbd 918e ca3f 25c1 e2be
000001f0: b857 b4bd a936 3bbe 6a77 9b3d f435 72bf
00000200: cef4 9dbf e706 16bf f8e5 1d3f 27aa 0b3e
00000210: 6efa f3bc ed0e 093e b1b9 103f 3afb b4bf
00000220: e430 e5be 5614 4bbf a69f ddbe 6c44 99bf
00000230: 4e2b 6e3c a3fb 073e 8bf7 2c3f d6a0 cb3e
00000240: 7842 d53e 829b 48bf 72a5 2a3f a055 20bf
00000250: 99cb ef3e ca30 683e f3cc bdbe 3840 80bf
00000260: 71dd 65bd 980a 41bf ebe1 3d3f 38eb 93bf
00000270: 4b8c 0bbf b876 a7bf 4851 043f 35eb b23f
00000280: 8e2b 8cbe c6f6 113e f3cb 4b3f dfb7 d83e
00000290: 415e 5b3e bb8b 85be cd28 4bbf 9eda 923f
000002a0: 9372 6b3f 9566 0b3f f847 dabe ac95 5dbf
000002b0: b5ee 343f 507b 3dbe 5f04 90be 249b 5f3f
000002c0: 2d94 66bf d4bb b73d f704 f0be 0be3 283f
000002d0: 1965 ddbe 9347 3d3d 8563 e8be b74f 713f
000002e0: 1f7d 9fbd ceb7 9b3d 4e95 50be 389b 153d
000002f0: cbcb e7be 9aad 8fbf c55b 903f a0af d83e
00000300: 7f93 e2bd 7cf0 22bf 3fbd f33e 4d07 6dbe
00000310: ccec ca3e 5ff1 203f 222c 393e 8252 c3be
00000320: 6087 c5be 5b13 093f 6e45 5c3d 7595 8d3f
00000330: 9bae 5fbf 7251 aa3e f754 cabd c7a8 9c3f
00000340: ae33 06be a049 c63f 7e08 48bf 1953 4fbe
00000350: e805 dcbe e2d6 a4bd a3fc 8bbe 4e70 3a3f
00000360: 53a7 a53e 3cdc dfbc 0ed2 803e f27f 44bf
00000370: 5299 80bf 58ef 8f3f 3354 dabe 5e79 5b3f
00000380: 217c a93d f53f 36be 0e7f 33be ed38 ca3e
00000390: 3b3e 313f 3695 c8be 9d27 2c3f d9e3 ed3d
000003a0: 2753 90be 51d8 fd3d 12f9 05bf f11c 883f
000003b0: d4fd 033f 24b3 213d 3c21 993f a416 ecbe
000003c0: 746f 223f 1f4f 89be 4f8a 0abd 1fbe 82bc
000003d0: 0bdc 8ebf 11b5 213e c134 6ebf 4600 1cbf
000003e0: 57f6 94be 1f3b 803e 7133 e13e 3341 6ebf
000003f0: ccc9 72be 6303 5a3e 1413 38bf a281 dabd
0.9477594 -0.038734067 0.38089865 0.548735 0.27052152 -0.24790247 -0.10248922 0.6376999
0.04843238 0.3354941 -1.0807276 -0.97154766 0.092274554 -1.2077819 -0.7178881 0.0073203356
-0.25573727 -0.39894137 -0.23798907 -0.87540436 0.0149010075 0.26465774 -0.66135377 -0.97245556
0.55875736 0.5366106 0.13077445 -1.0167176 0.89671797 0.27450913 -0.2551671 0.32810816
-1.1376723 -1.0223917 -0.18085416 0.5878573 1.3343914 -0.37584776 -0.9620578 0.66962475
-0.38321772 0.9943721 -0.022649776 -0.11457639 0.16166677 -0.05380431 -0.01409594 0.22220138
0.12316175 0.12025159 -0.8544554 -0.46082604 -0.66380316 -0.71661395 0.54123515 -0.6001324
-0.617096 0.4430616 0.4008165 -0.29534593 0.14980362 -0.31278735 0.5959757 0.015248093
0.47197342 0.24279004 -0.4050519 0.32221812 -1.1115236 0.7367444 1.0741401 -0.3238704
0.042949345 0.16538186 -1.4069154 -0.2759392 -0.14533785 0.33746886 -0.058440316 -0.21290837
0.096891224 0.08041284 -0.5293392 -0.6163742 0.101511724 -0.42357337 0.028240543 -0.8588467
-0.049165376 0.8581987 0.15358426 -0.4986181 0.9070936 -0.31073025 -0.055038366 -0.9614423
1.1122258 -0.215759 0.59631985 -0.45905077 -0.5772386 -0.57345974 0.017779315 0.1286904
-0.70163435 0.058752522 0.82195383 0.23321646 0.83823836 -0.1868777 1.3614461 -1.4731848
-0.8690659 0.11636618 0.5575363 -1.089429 -0.4018036 -0.569399 -1.4736847 -0.8310743
-1.4627697 -0.09239177 1.5824758 -0.44287983 -0.088057935 -0.1828257 0.07591136 -0.94613576
-1.2340333 -0.5860428 0.6167903 0.13639127 -0.0297825 0.133846 0.5653334 -1.4139168
-0.44763863 -0.79327905 -0.43285865 -1.1974006 0.014536692 0.13279586 0.6756522 0.39771146
0.41652274 -0.78362286 0.666587 -0.62630653 0.4683502 0.22674862 -0.37070426 -1.0019598
-0.056119386 -0.7540679 0.7417285 -1.1556158 -0.54510945 -1.3083105 0.51686525 1.397803
-0.2737698 0.14254293 0.79608077 0.42327783 0.21422674 -0.26083168 -0.7935913 1.1472967
0.919717 0.544534 -0.42633033 -0.86556506 0.7067674 -0.18504071 -0.28128335 0.873461
-0.9006985 0.08971372 -0.46878788 0.6597144 -0.43241194 0.046210837 -0.45388427 0.9426226
-0.07787537 0.07603417 -0.20369455 0.03652498 -0.4527267 -1.1224854 1.1278006 0.4232149
-0.11063289 -0.636482 0.4760532 -0.23147316 0.39633787 0.62868303 0.18083242 -0.38148886
-0.38579845 0.5354516 0.05377715 1.1061236 -0.873758 0.33265263 -0.09879487 1.2239007
-0.13105652 1.5491219 -0.7813796 -0.20246543 -0.42973256 -0.08048798 -0.27341184 0.72827613
0.3235422 -0.027326696 0.2516026 -0.7675773 -1.004679 1.1244917 -0.42642364 0.85732067
0.08275629 -0.17797835 -0.17528936 0.39496556 0.6923558 -0.3917634 0.67247945 0.11615724
-0.2818844 0.12394775 -0.52333176 1.0633832 0.51559186 0.039477482 1.1963267 -0.46111023
0.63451314 -0.26818177 -0.033823308 -0.015959797 -1.1160902 0.15791728 -0.93049246 -0.6093792
-0.29094192 0.25045106 0.4398456 -0.93068236 -0.23709792 0.21290354 -0.7190411 -0.10669257

fc1.bias f4 [16]
00000000: f105 59bf 36fa 193f d057 3d3f 7ba1 18bf
00000010: ed4a a93d 2e72 423e 2984 01bd 8ac4 563f
00000020: 1315 053f 7968 9b3d 3801 babe 2b79 30be
00000030: 0686 2cbe bf3c ce3e 1a34 69bd 9812 153f
-0.8477469 0.60147417 0.73962116 -0.596214 0.08266244 0.18988869 -0.03162018 0.83893645
0.5198528 0.07588286 -0.36329055 -0.17233722 -0.16848001 0.4028072 -0.056934454 0.58231497

fc2.weight f4 [1, 16]
00000000: e107 2fbe 2ee5 aabd 49cc a23f 5b3f 56bf
00000010: faed 3b3e 3745 0c3f 5106 afbe 259c 4b3f
00000020: e619 a6bf 1b94 b5be 4da4 3cbf 71f5 093f
00000030: 5761 2bbc 8b0d ab3f 0e64 d2be 5ea4 903f
-0.1709285 -0.08344494 1.2718593 -0.8369042 0.183525 0.54793113 -0.34184507 0.7953513
-1.2976654 -0.35464558 -0.73688203 0.5389014 -0.010460219 1.3363508 -0.4109196 1.1300161
