checkpoint0.pth (torch_old, 2399 bytes, 3 tensors)

fc1.weight f4 [16, 23]
0.6256187 0.3891201 0.46414277 0.19617116 0.35274705 0.24004392 -0.30552694 0.05101127
-1.846685 0.18946318 0.08218425 -0.25314227 0.0139371585 0.102868095 -1.2410129 0.82541746
-0.285474 0.69902694 1.3686073 0.005541094 -0.2620704 0.81695014 -1.1799607 -0.28159237
-0.48778588 0.39814377 -0.28420448 -0.004355201 -0.054222107 0.19977124 -0.044885818 0.64474857
-0.4936868 -0.33055007 -1.1125479 -0.012997911 -0.25872853 1.1655505 -0.06279412 0.91820043
-1.0145264 0.47089705 -0.062923156 0.37451658 0.4127923 -0.4691496 0.26039875 -0.26170397
1.5126693 0.1311099 -0.20559296 -0.7230649 -0.31336313 -0.102336004 0.33023039 0.8956692
-0.70057523 0.8978942 -0.3596191 0.31967834 0.15047802 1.4565792 -0.73472965 0.2662224
0.5607689 0.6571738 0.5084123 0.98620313 -0.56646603 0.04384434 -0.1608537 -0.06677791
-0.54346126 0.6793074 0.57865894 -0.70213515 -0.37669554 0.37589157 0.121645376 0.49977046
-0.47954023 0.51802593 -0.647957 -0.3352039 0.064981684 -0.82963824 -0.42203292 0.9188806
0.20506366 -0.19631845 -0.84762156 0.49874812 0.012276448 -0.40652698 -0.82341003 0.36139262
-0.90472966 -0.43683088 0.9006596 -0.47033802 0.68307126 -0.7384125 -0.44747755 -0.57288814
-0.26473022 0.0501706 -0.5407427 -0.2250696 -0.34372085 -0.027038407 0.448819 0.26587042
-0.70353425 0.31672814 0.60341233 0.79245603 0.4558128 0.048655897 0.931841 -0.42226052
0.32191563 -0.7335454 0.5666394 -0.9651231 -0.956507 0.26642197 -0.13338706 1.6138794
0.34369817 1.2459575 0.3866398 -0.86050624 -0.12889098 0.48265317 0.6786227 -1.6084398
0.074905075 -1.0634577 -0.27140388 0.06831955 0.6288828 0.52567106 0.082654506 0.10526064
-0.13419782 -1.0651734 0.11772835 0.56743133 -1.089517 0.71236026 -0.7190284 -0.34877533
0.38664612 -0.32701495 -0.1264757 -0.43353102 -0.82657045 0.20934984 -0.5029724 -0.10606178
0.93846315 0.8033429 -0.43127975 -0.6670132 -0.25506076 -0.67673093 -1.6450301 0.2689987
0.3793504 -0.6198981 -0.17333983 1.216343 0.20770693 0.50638586 0.12755811 -1.2591324
-0.17016084 0.21878892 1.4889357 -0.46716183 -0.33986294 -0.46985677 0.2716944 -1.2674516
0.62141526 0.4545648 -0.46294796 1.1394118 -0.6083369 0.86013085 -1.3243856 -0.3579282
0.4457498 0.24706846 -0.5640116 0.6980559 -0.22834395 -0.25007343 0.25094196 -1.3876629
-0.70439655 0.44686684 1.1802645 -0.09519237 -0.50087965 0.060935117 -0.16146016 0.6562841
1.2809246 0.008869365 -1.1001899 0.5306501 0.65102935 0.024712943 0.48189077 -0.54662865
0.4045397 0.5114537 -0.65799105 0.8099972 -0.74129516 0.24751471 0.49037206 -1.1395264
0.3689002 -0.17647772 -0.1633165 0.84047806 0.6339554 -0.62903214 -0.43055943 -1.7807499
-0.37656802 0.6879759 0.21190517 -1.0603696 0.167698 -0.40455374 -0.42542586 0.4684913
-0.63092023 0.6770972 0.2469916 0.19087376 -0.6460972 0.795642 -0.32676798 -0.59947383
0.25417095 -0.5569989 -0.6873001 0.43825996 -0.00025013398 0.65772617 0.0857986 0.45659593
00000000: 8c28 203f c03a c73e 1fa4 ed3e 18e1 483e
00000010: 439b b43e 13ce 753e 076e 9cbe 32f1 503d
00000020: 2d60 ecbf a302 423e 3750 a83d dd9b 81be
00000030: ae58 643c 82ac d23d 83d9 9ebf 8f4e 533f
00000040: a629 92be 6ef3 323f 862e af3f 1192 b53b
00000050: 172e 86be a523 513f f408 97bf e02c 90be
00000060: 12bf f9be 80d9 cb3e 4083 91be 13b6 8ebb
00000070: 0018 5ebd d590 4c3e 31da 37bd 3e0e 253f
00000080: 84c4 fcbe dc3d a9be f867 8ebf 31f5 54bc
00000090: 1178 84be c230 953f 349a 80bd 2f0f 6b3f
000000a0: 00dc 81bf 6b19 f13e dbdd 80bd a3c0 bf3e
000000b0: 8359 d33e 6034 f0be fc52 853e 10fe 85be
000000c0: 269f c13f ac41 063e f686 52be c81a 39bf
000000d0: 2271 a0be 8a95 d1bd f513 a93e 944a 653f
000000e0: e658 33bf 65dc 653f ff1f b8be e1ac a33e
000000f0: e916 1a3e 3071 ba3f 3e17 3cbf 4d4e 883e
00000100: 8d8e 0f3f 8b3c 283f 4f27 023f cf77 7c3f
00000110: eb03 11bf 1f96 333d d5b6 24be dbc2 88bd
00000120: 4720 0bbf 17e7 2d3f fe22 143f 21bf 33bf
00000130: 3dde c0be dc74 c03e 3621 f93d eae1 ff3e
00000140: 4c86 f5be 599d 043f 83e0 25bf d89f abbe
00000150: 1e15 853d 2c63 54bf b314 d8be c23b 6b3f
00000160: 35fc 513e b407 49be bafd 58bf ea5b ff3e
00000170: 2823 493c 4e24 d0be 00cb 52bf 7408 b93e
00000180: 5d9c 67bf 4ca8 dfbe a191 663f 25d0 f0be
00000190: c2dd 2e3f 9a08 3dbf c71b e5be cca8 12bf
000001a0: b88a 87be b07f 4d3d 1d6e 0abf a578 66be
000001b0: 2efc afbe a67f ddbc 9bcb e53e 2b20 883e
000001c0: d21a 34bf 312a a23e 3b79 1a3f 66de 4a3f
000001d0: 4c60 e93e 684b 473d 228d 6e3f 8832 d8be
000001e0: 20d2 a43e a2c9 3bbf 480f 113f 4f12 77bf
000001f0: a5dd 74bf 7668 883e 9e96 08be 9a93 ce3f
00000200: 35f9 af3e 897b 9f3f a7f5 c53e 234a 5cbf
00000210: fffb 03be 511e f73e 38ba 2d3f 5be1 cdbf
00000220: d567 993d 621f 88bf 73f5 8abe 1feb 8b3d
00000230: 77fe 203f 6192 063f c446 a93d e492 d73d
00000240: 276b 09be 9a57 88bf 901b f13d 2e43 113f
00000250: 4b75 8bbf 3e5d 363f 3f12 38bf ae92 b2be
00000260: 7bf6 c53e 816e a7be d982 01be c7f7 ddbe
00000270: 1f9a 53bf ce5f 563e cdc2 00bf eb36 d9bd
00000280: 1f3f 703f e1a7 4d3f b3d0 dcbe 61c1 2abf
00000290: 5397 82be 3d3e 2dbf 5990 d2bf 33ba 893e
000002a0: 373a c23e a4b1 1ebf ff7f 31be 21b1 9b3f
000002b0: 20b1 543e 81a2 013f 989e 023e 402b a1bf
000002c0: a53e 2ebe 340a 603e 7295 be3f d62f efbe
000002d0: 8402 aebe 1191 f0be 871b 8b3e db3b a2bf
000002e0: 1215 1f3f b8bc e83e 8407 edbe 3fd8 913f
000002f0: f8bb 1bbf 8931 5c3f 7885 a9bf 5d42 b7be
00000300: 5139 e43e 84ff 7c3e 1063 10bf cbb3 323f
00000310: ffd2 69be a009 80be 777b 803e f09e b1bf
00000320: 5553 34bf bbcb e43e e812 973f 38f4 c2bd
00000330: a639 00bf 1a97 793d d055 25be 3c02 283f
00000340: 56f5 a33f d050 113c 06d3 8cbf afd8 073f
00000350: dca9 263f cc72 ca3c 63ba f63e dbef 0bbf
00000360: d41f cf3e a1ee 023f 1a72 28bf fa5b 4f3f
00000370: 85c5 3dbf 7f74 7d3e 0c12 fb3e 00dc 91bf
00000380: 7de0 bc3e 93b6 34be 713c 27be 9229 573f
00000390: e74a 223f 4008 21bf 4972 dcbe 9def e3bf
000003a0: 86cd c0be 301f 303f abfd 583e 31ba 87bf
000003b0: 06b9 2b3e ab21 cfbe 6bd1 d9be 17de ef3e
000003c0: fd83 21bf 3e56 2d3f 5eeb 7c3e 6974 433e
000003d0: a066 25bf 32af 4b3f 224e a7be 1e77 19bf
000003e0: b222 823e 7b97 0ebf e6f2 2fbf 9c63 e03e
000003f0: 6a24 83b9 be60 283f 2db7 af3d f1c6 e93e

fc1.bias f4 [16]
0.0032590565 0.46428835 -0.68510485 -0.17037363 -0.38635948 -0.9891197 0.08551786 0.35991043
-0.5923403 0.383575 -1.0884962 0.72224337 1.0604241 0.7750513 -0.017411403 0.006714464
00000000: e595 553b 34b7 ed3e 0863 2fbf 6d76 2ebe
00000010: e9d0 c5be f336 7dbf fd23 af3d 2e46 b83e
00000020: 9da3 17bf f163 c43e d853 8bbf f1e4 383f
00000030: fabb 873f c369 463f 5ca2 8ebc 0205 dc3b

fc2.weight f4 [1, 16]
0.36353776 -0.5566356 -0.35755962 -0.11602845 0.3745504 0.80584437 -0.74549496 0.047340915
0.093026 -0.70453805 -0.014012844 0.4303113 -1.1621778 0.29386804 1.1340313 0.8891153
00000000: 9f21 ba3e ac7f 0ebf 0e12 b7be 53a0 edbd
00000010: 12c5 bf3e d14b 4e3f c2d8 3ebf 8ce8 413d
00000020: 6a84 be3d 9b5c 34bf 2196 65bc c351 dc3e
00000030: 3ec2 94bf df75 963e f027 913f 0f9d 633f
