checkpoint3.pth (torch_old, 2399 bytes, 3 tensors)

fc1.weight f4 [16, 23]
00000000: 06e8 72be 7037 33be 28cd 463e e89b 1abf
00000010: 5b3e 0cbe 1e9c 3bbe 9e47 cbbe 82b9 67bf
00000020: 4dbd 3f3f 0578 d23d 825e 863c 6d8b 7d3d
00000030: cfc1 463e cb74 3b3e 9b00 9ebe e276 d5bd
00000040: 5379 163f 6ef1 3b3f 6a53 dabe 2626 023e
00000050: 80f6 43be d2b9 1d3f c981 bfbe f97d 143f
00000060: 81fc 4cbf 9481 70bf b934 e93d ad52 35bf
00000070: cd8e 18bf 8da5 03bf 3282 9bbe 9688 3f3f
00000080: dd96 6e3f 04c8 c839 0183 42bf 96b1 07be
00000090: 3bc1 393f 862e 453c 9574 edbd f16f 963e
000000a0: 910a 053f 1fba 8cbe 914e ebbf 2e17 3f3d
000000b0: 76e8 df3e cc31 afbe 6191 8abf bed1 51bf
000000c0: 507c 573f 4690 87be 17e0 68bf 2d42 bc3e
000000d0: e778 47be fbc7 f73e 24d3 b2be f920 393f
000000e0: 49ad 0bbf 82c3 1d3f fdbd 40bf 16bc 28bf
000000f0: 1285 26bf 6c80 64bf 787b 40bf 6f58 913f
00000100: d006 1c3f 4b95 8cbf 5615 71bf 9364 6e3f
00000110: 0b09 33bf 1118 a3bc ad05 3e3f d068 41be
00000120: d2f9 8f3f 372b 223f 21d1 b6bf b125 f23e
00000130: a036 4c3f 4f2e 2dbe 6056 50bb 718d 983e
00000140: f8b8 86bd 3068 f53e 4934 333e 7427 3dbf
00000150: 452f 80be 6bfe 56bf 0f32 cdbe e9a2 edbe
00000160: bc90 84bf b30a 70bd f218 f4be 1d69 243f
00000170: 16af 21bf 14ef 0f3d b351 583e 29bb 983e
00000180: 0b91 a73d b6f5 7d3f 114f 66bd 45ee edbe
00000190: 247d b7be f58a 42bf 2eec 203f 5a0b 1b3f
000001a0: 4ebe 10be 7401 693f af95 5c3f cac5 3cbf
000001b0: a4b0 833f b10d 933f 0e13 02bf 5780 cb3e
000001c0: d314 823f bb80 983f 3326 473e 5dfc 1b3f
000001d0: e90e 003f c971 b7bd 172d 5fbf 407b f73d
000001e0: 7ffb a43e af75 9a3e 644c 743f f916 b93e
000001f0: 4e1e b93f bdbb 863f 9461 08be 8628 26bf
00000200: bffe ed3e 849b 33bf d596 95be d969 17bd
00000210: 7128 f7bf eb9b 2a3f a1ed e63e a1db 133f
00000220: 8707 58bf ced4 8bbf 3da1 1c3e 3b4f fdbe
00000230: 07a9 10be b4c5 523e d105 eb3e fd19 86bc
00000240: 345f 3bbd fee2 ca3e 4670 20bc 4b8a 59bf
00000250: 16f8 8a3b ee2c e2bd d4f1 65be 7da3 0e3e
00000260: 3b4d 73be cb1c 61bf caeb 76bd 1c8b 9dbe
00000270: 0fff 173f a475 06bf 3e5e 343f e806 2c3d
00000280: ce40 1abf 1c7d 57bf ef43 ba3e 5dd6 cbbe
00000290: d304 ce3f 9d5f a53e 98b5 ecbe 4119 c43e
000002a0: 3ac0 1dbe 37a3 393d c6b8 4ebf ad25 0c3f
000002b0: a6b0 c53d 03a8 f6be 8331 92bf 3d1f 1b3f
000002c0: a77b 08bf 4cfc 3abf 71c6 e63d fd5d 733f
000002d0: 0198 babe 1371 59bf 9f99 203d ac2a 9ebe
000002e0: faf8 9d3e e5ce e9bc 31c7 d3be 0e45 a43d
000002f0: 86f8 9ebe fc2f 5bbe 1ae4 f4be a476 173f
00000300: 016a 2f3f 4fd8 62bf 1b6f 3a3f 9e8d 043d
00000310: 0cb7 bdbe ac6b 923f 8c3c 2f3e 4f74 ee3e
00000320: c9c5 883f c9bd be3e 8f13 913e 6d88 fbbe
00000330: c8c0 74bc 4fe0 323f 9db8 393f 4c28 3dbd
00000340: 0e8f 06be b96a 2cbf 89db 61bf 1407 9d3e
00000350: 3973 7f3f aef1 02bf 328f a6bf a485 44be
00000360: 4a75 533e cbf9 0c3f 1573 563f 70fd acbe
00000370: 49a5 81bf 6431 62bf d545 7cbe de63 063e
00000380: ee71 82ba 04d2 12bf de67 be3e 799a 57bd
00000390: e2f7 283e ba0b 433e 4e22 1ebf 3857 18bf
000003a0: ad84 b63d 6908 7abe 04bd 713f 78d2 05bf
000003b0: 1525 433f 893b 443f f85d ecbf 0e8c bf3d
000003c0: ec75 60bb fec7 7abf e4e8 003f b44e 77bf
000003d0: cbc8 82bf 0cb3 a23d e64a 123f 4c5b c63f
000003e0: 59d6 89bf c872 91bf 5c7e 013f d6d4 72bf
000003f0: 47d5 8a3e c457 2cbf 3983 e7bd 9b52 30be
-0.23721322 -0.17501616 0.19414198 -0.60394144 -0.13695662 -0.18321273 -0.39703077 -0.9051744
0.74898225 0.10276798 0.016402487 0.061900545 0.1940987 0.18306272 -0.30859837 -0.10423066
0.58778876 0.7341527 -0.42641765 0.12709865 -0.19137001 0.61611664 -0.37403706 0.5800472
-0.8007279 -0.9394772 0.11387009 -0.7082928 -0.59592897 -0.51424485 -0.3037277 0.7481779
0.9319895 0.00038295996 -0.75981146 -0.13251337 0.7256047 0.012035018 -0.11594502 0.2938228
0.5196925 -0.2748575 -1.8383352 0.046652965 0.4373204 -0.3421768 -1.0825616 -0.81960666
0.8417406 -0.2647726 -0.90966934 0.36769238 -0.19479714 0.4839476 -0.34926713 0.7231594
-0.5456129 0.61626446 -0.752899 -0.65911996 -0.650468 -0.89258456 -0.751884 1.1355113
0.60947895 -1.0983061 -0.9417318 0.93122214 -0.69935673 -0.019908937 0.7422741 -0.18887639
1.1248114 0.6334719 -1.4282571 0.4729438 0.7977085 -0.16912197 -0.0031789765 0.2979541
-0.06578249 0.4793105 0.17500414 -0.73888326 -0.25036064 -0.8398196 -0.40077254 -0.46413353
-1.035667 -0.058603954 -0.47675282 0.6422289 -0.63157785 0.035140112 0.21124916 0.29830292
0.081819616 0.9920305 -0.056227747 -0.46470848 -0.35837662 -0.7599328 0.6286038 0.60564196
-0.14135095 0.9101784 0.861659 -0.737393 1.0288281 1.1488553 -0.50810325 0.39746353
1.0162605 1.1914285 0.19448166 0.6093195 0.5002275 -0.0895725 -0.87178177 0.12084055
0.32223126 0.3016791 0.9542906 0.3615034 1.4462373 1.0526043 -0.13318473 -0.64905584
0.46483418 -0.70159173 -0.29216638 -0.03696618 -1.9309217 0.6664416 0.4510317 0.57757
-0.84386486 -1.0924318 0.15295883 -0.4947451 -0.14126979 0.2058323 0.45902875 -0.016369814
-0.04574509 0.39626306 -0.009792393 -0.84976643 0.004241 -0.11043726 -0.22455531 0.13929553
-0.2375993 -0.8793456 -0.06028346 -0.30770195 0.59373564 -0.52523255 0.704563 0.041998774
-0.60255134 -0.84175277 0.36379954 -0.39811984 1.6095222 0.3229951 -0.46232295 0.38300517
-0.1540536 0.04532167 -0.8075069 0.5474499 0.09652834 -0.48175058 -1.142136 0.6059454
-0.5331368 -0.73041224 0.112683184 0.9506529 -0.36444095 -0.8493816 0.039209004 -0.3089193
0.30854017 -0.028541038 -0.41362908 0.08020984 -0.31048983 -0.21405023 -0.47830278 0.59165406
0.68521124 -0.8861131 0.72825783 0.03236162 -0.37053716 1.1439109 0.1711294 0.4657311
1.0685359 0.3725417 0.28335235 -0.49127522 -0.014938541 0.6987352 0.7254732 -0.04618101
-0.13140509 -0.67350346 -0.8822561 0.30669463 0.9978519 -0.51150024 -1.301245 -0.19191605
0.20650211 0.55068654 0.8376935 -0.33787107 -1.0128566 -0.88356614 -0.24636014 0.13124034
-0.0009952167 -0.5735171 0.3718862 -0.05263755 0.1650081 0.19047442 -0.61771095 -0.59508085
0.08912025 -0.2441727 0.9442904 -0.52274275 0.7622846 0.76653343 -1.8466177 0.09352885
-0.0034249974 -0.97961414 0.5035536 -0.96604466 -1.0217527 0.07944307 0.57145536 1.5496612
-1.0768539 -1.1363153 0.50583434 -0.9485601 0.27115843 -0.6732142 -0.113043256 -0.17219011

fc1.bias f4 [16]
00000000: 227d 6e3e 7993 cfbe 9318 973e e00c 823d
00000010: 3083 61bf c065 08bf e359 c5bf ef83 743b
00000020: 0c5e 063f 80b9 c7be 180b 32bf b0af 593e
00000030: b27c 063f 8f97 0abe f7b0 cb3f 319a a83e
0.23289922 -0.405422 0.29510936 0.06350112 -0.880908 -0.5328026 -1.5418056 0.0037310084
0.52487254 -0.39008713 -0.6954818 0.21258426 0.5253402 -0.13534378 1.591338 0.3293014

fc2.weight f4 [1, 16]
00000000: dd96 11be 4e52 ee3e 9185 17bf a0bd 963e
00000010: 478d e73e 2c03 193f c7bb 85bf b2a8 f73e
00000020: 976e 503e c1b9 c53e ad48 f7be 7dbb 19be
00000030: 4d75 17bf 9481 17bf a319 0b3f 53b5 09bf
-0.14217706 0.46547168 -0.5918818 0.29441547 0.45224974 0.59770465 -1.044793 0.48370892
0.20354687 0.3861828 -0.48297635 -0.15012927 -0.5916336 -0.59182096 0.54335994 -0.53792304
