checkpoint2.pth (torch_old, 2399 bytes, 3 tensors)

fc1.weight f4 [16, 23]
-0.41162047 -1.3438584 -0.2901257 -0.6912935 -0.27030486 0.77660424 0.17999138 1.0334141
0.5256761 1.2218602 -0.8601256 -0.118006706 -1.0492057 -0.8247717 -0.4242246 -0.40715733
0.4272813 -0.3241929 0.8218051 -0.6537045 -0.1394377 -1.4872032 0.10363408 -0.3214448
0.3241397 0.16229977 -0.0018318485 -0.4672714 -0.38183343 -0.8552782 0.36817256 -0.40659738
-0.5291987 0.65342534 -0.0670995 0.32250756 -0.36593077 0.4462577 0.07634194 0.5595179
0.027970875 -0.9077985 0.36726773 0.09214693 -0.15026304 0.34844625 1.2981238 0.64692897
0.18365224 0.25057834 0.5555121 -1.3294748 0.63441503 0.6037584 0.081334755 -0.27187613
-0.28942043 -0.3667157 -0.2771164 -0.89170057 0.7672884 0.38397887 0.88138926 0.65436125
-0.51169086 -0.19761306 -0.32495618 -0.0011858821 0.12968351 0.7942399 -0.82724375 -0.46050462
0.23380765 -1.2739849 -1.1204187 -0.11411912 -0.7935374 1.4443343 -0.006262903 -0.14489888
0.33403784 -0.9576606 1.4834521 -0.6791171 -0.19900277 0.30795252 -1.2360579 0.20788722
1.6603816 0.18717764 0.2511755 -0.15322354 -0.13644731 0.47789067 -0.32306865 -0.07275133
0.39889753 -0.9718748 0.0033076468 0.2666926 0.35805985 -0.1106766 -0.050016176 0.2989877
0.3777025 0.2503356 0.62506115 0.5300326 0.45210055 -0.4208627 0.8502979 -0.33708343
0.5795397 0.668266 -0.17698096 -0.6557439 -0.12552197 -0.40058112 0.021570582 -0.06736167
-0.8718182 -0.030457905 0.21103269 -0.2838033 0.5436894 1.29595 -0.42469302 0.32987452
0.2205918 -0.2547065 -0.27394354 -0.59520644 -0.045616914 1.2467864 1.0451618 0.07199026
-0.08649763 0.68810886 -0.094645545 0.42205927 0.03229449 -0.13122553 -0.7057507 0.7569517
0.1647947 0.059090354 -0.07651754 0.14913127 0.53382623 0.3289445 -0.01302816 -0.52603674
0.2601968 -1.1841606 -0.27929616 -0.2593643 1.0429517 -1.9900031 -0.2323194 0.32095844
-0.26093033 0.80257225 -0.8804882 -0.56216705 0.8349189 -0.9325071 -0.48463026 -0.312795
0.9403818 -0.5441649 0.8134179 -0.87468326 0.3952156 0.8086522 -1.4269471 -0.0509423
-0.35585082 0.49102744 -0.41480532 -0.8238302 0.93011755 0.26910082 1.4745007 1.1352917
0.5371316 -1.1675804 0.33109888 -0.59358793 -0.7887506 0.45162195 -1.2125475 -0.08151555
-0.19911185 0.28222194 0.7468909 -0.15425421 1.1318108 0.43855885 -0.14859334 0.00962019
-0.082048856 -1.3233968 0.6658316 0.58116937 0.59154516 0.92535675 0.9588848 -0.7635291
0.404893 0.8152599 -1.5421919 0.21549053 -0.7826128 0.1007315 -0.6680441 -0.14644417
-0.10265459 0.39370856 1.0694617 0.17612843 -0.51616454 -0.09193431 0.6329837 0.69059515
0.13585986 0.25937763 -0.0072539505 0.709298 0.48143795 -0.69715726 0.51850694 0.23778327
-0.97987413 0.119688064 0.62837815 0.12036191 0.11856436 -0.22603971 -0.36481136 -0.080132104
-0.37168184 0.7662149 -0.24979629 0.28986585 0.3866016 0.17103985 -0.21356508 -0.194155
0.08519942 -0.92416465 -0.42533144 -0.7393425 0.5020038 -0.13735346 0.54534644 0.5872781
00000000: ebbf d2be 8d03 acbf 5b8b 94be 9cf8 30bf
00000010: 6665 8abe 89cf 463f a94f 383e ea46 843f
00000020: b592 063f ea65 9c3f 3131 5cbf 80ad f1bd
00000030: 5f4c 86bf 3d24 53bf f733 d9be ed76 d0be
00000040: 9dc4 da3e 9dfc a5be d261 523f 2e59 27bf
00000050: c2c8 0ebe ad5c bebf 1b3e d43d 6a94 a4be
00000060: a4f5 a53e e931 263e a31a f0ba 323e efbe
00000070: ac7f c3be 83f3 5abf 1d81 bc3e 882d d0be
00000080: 9179 07bf e246 273f 766b 89bd b61f a53e
00000090: 475b bbbe e47b e43e 2a59 9c3d 913c 0f3f
000000a0: 2d23 e53c 7c65 68bf 840a bc3e 88b7 bc3d
000000b0: 8ede 19be 8c67 b23e ec28 a63f 239d 253f
000000c0: 550f 3c3e ce4b 803e 0a36 0e3f 3b2c aabf
000000d0: 0669 223f e98f 1a3f d692 a63d 5933 8bbe
000000e0: ea2e 94be 29c2 bbbe 33e2 8dbe 7d46 64bf
000000f0: 036d 443f e198 c43e baa2 613f 3884 273f
00000100: 2cfe 02bf 145b 4abe a860 a6be 9a6f 9bba
00000110: c1cb 043e 4e53 4b3f 3fc6 53bf 43c7 ebbe
00000120: 466b 6f3e f011 a3bf e169 8fbf 49b7 e9bd
00000130: 4425 4bbf f2df b83f 0a39 cdbb 5f60 14be
00000140: 0207 ab3e 3f29 75bf c2e1 bd3f 9eda 2dbf
00000150: 62c7 4bbe f4ab 9d3e 2537 9ebf 63e0 543e
00000160: 6287 d43f 7fab 3f3e 139a 803e a2e6 1cbe
00000170: d8b8 0bbe 16ae f43e 4169 a5be a6fe 94bd
00000180: 4c3c cc3e c9cc 78bf 1bc5 583b ef8b 883e
00000190: 9f53 b73e 6aaa e2bd c3dd 4cbd ea14 993e
000001a0: 3962 c13e fd2b 803e 0204 203f 37b0 073f
000001b0: b979 e73e 517b d7be 20ad 593f 3396 acbe
000001c0: b75c 143f 7b13 2b3f 7f3a 35be d5de 27bf
000001d0: d588 00be f818 cdbe cab4 b03c eaf4 89bd
000001e0: 7a2f 5fbf db82 f9bc f418 583e ab4e 91be
000001f0: 3b2f 0b3f b1e1 a53f 5d71 d9be 50e5 a83e
00000200: d1e2 613e e468 82be 5442 8cbe 735f 18bf
00000210: cdd8 3abd b296 9f3f ddc7 853f a16f 933d
00000220: ab25 b1bd e727 303f 86d5 c1bd 2718 d83e
00000230: 3a47 043d fc5f 06be 14ac 34bf 96c7 413f
00000240: f1bf 283e ba08 723d 3ab5 9cbd deb5 183e
00000250: d6a8 083f 6a6b a83e 1074 55bc 58aa 06bf
00000260: 8438 853e 9392 97bf e8ff 8ebe 66cb 84be
00000270: 717f 853f 6cb8 febf 23e5 6dbe aa54 a43e
00000280: a998 85be 6075 4d3f ad67 61bf 2eea 0fbf
00000290: 3fbd 553f c9b8 6ebf 7521 f8be ab26 a0be
000002a0: ddbc 703f 644e 0bbf 283c 503f 3eeb 5fbf
000002b0: b359 ca3e d503 4f3f 34a6 b6bf e0a8 50bd
000002c0: 1432 b6be f367 fb3e 5d61 d4be 89e6 52bf
000002d0: 2f1c 6e3f 95c7 893e 70bc bc3f 3d51 913f
000002e0: 7581 093f 4673 95bf cb85 a93e 61f5 17bf
000002f0: 8feb 49bf fe3a e73e c234 9bbf a0f1 a6bd
00000300: fae3 4bbe 657f 903e 3e34 3f3f d1f4 1dbe
00000310: 2ddf 903f c98a e03e da28 18be 009e 1d3c
00000320: 3b09 a8bd 1165 a9bf f173 2a3f 84c7 143f
00000330: 816f 173f 2ee4 6c3f 7979 753f a576 43bf
00000340: 234e cf3e dfb4 503f 8b66 c5bf 8da9 5c3e
00000350: 5059 48bf 514c ce3d f004 2bbf 76f5 15be
00000360: 923c d2bd 2b94 c93e 1fe4 883f 035b 343e
00000370: 5c23 04bf 0e48 bcbd 380b 223f d8ca 303f
00000380: d91e 0b3e 25cd 843e 8cb2 edbb 8e94 353f
00000390: 097f f63e e678 32bf dfbc 043f 757d 733e
000003a0: 08d9 7abf 041f f53d 64dd 203f 4e80 f63d
000003b0: dfd1 f23d f476 67be 8ec8 babe 4d1c a4bd
000003c0: 154d bebe a926 443f 99ca 7fbe 4c69 943e
000003d0: a5f0 c53e 1225 2f3e ceb0 5abe 91d0 46be
000003e0: 097d ae3d 0e96 6cbf 0bc5 d9be 8d45 3dbf
000003f0: 5283 003f 63a6 0cbe d39b 0b3f dc57 163f

fc1.bias f4 [16]
0.40937188 0.13044646 0.25171039 0.19067703 1.3826612 0.22644964 -0.13442847 -1.3981289
0.27611336 -0.8676485 0.71096665 0.14064275 -0.38730517 0.39934757 -0.43855226 0.3770564
00000000: 3199 d13e c293 053e 2fe0 803e d740 433e
00000010: 0bfb b03f 6ae2 673e 9ea7 09be e3f5 b2bf
00000020: bb5e 8d3e 361e 5ebf e901 363f a704 103e
00000030: dd4c c6be 4977 cc3e ec89 e0be 890d c13e

fc2.weight f4 [1, 16]
-0.06786858 -0.44977942 0.035520796 -0.5990972 0.13383007 -0.4412882 1.4027231 -0.7999586
0.27636752 -0.18222119 0.32250297 0.6089065 -0.61537594 0.60366017 -0.5168636 -0.3315835
00000000: affe 8abd 7d49 e6be 417e 113d 6f5e 19bf
00000010: c00a 093e 87f0 e1be 6e8c b33f 16ca 4cbf
00000020: 0b80 8d3e 3198 3abe 1c1f a53e 4ce1 1b3f
00000030: 4789 1dbf 7989 1a3f 2c51 04bf 50c5 a9be
