checkpoint3.pth (torch_old, 2399 bytes, 3 tensors)

fc1.weight f4 [16, 23]
00000000: 083f 42bf aa2b bebd 314a 0a3f e4ff f33e
00000010: 5a82 973e ad54 953e 4b70 06bf 3d01 8cbf
00000020: d995 c83e 531d f9be 9979 3ebf f953 653f
00000030: fb2a f83b 488f 0e3c 4897 873f bf78 dc3d
00000040: 80b2 0f3f b358 a73e ec4f 81bf b2bd 43bd
00000050: a067 723e f38b 1b3f 05e1 b8bf 4e1c 143f
00000060: 6cf0 acbe 74fb a2bf 1e57 203f b394 a1bf
00000070: 42c5 c5be 7042 febe 7db9 80bf dc17 1f3f
00000080: d22e 893f 0903 8abf 11c3 7cbe 8820 efbd
00000090: a151 8fbe e65c ad3a f100 993d bb91 1b3f
000000a0: 3d84 133f efc4 953c b79c edbe 826e f6be
000000b0: 1f70 8d3f bc46 26bf 6987 eebe 2762 96be
000000c0: 3805 633f 3e8f fcbe 5bef bbbf 4b5e cf3e
000000d0: aa70 97be cd34 e73e 1594 2cbf 8a25 2b3f
000000e0: 756a 30bf 204c 343f eb20 01c0 5ab4 1fbf
000000f0: 3aa9 29bf a7bf 86be c227 083e acb4 103e
00000100: 93df 7a3f 7747 17bf c55e 40be 0415 e93e
00000110: 3184 77bf 2f23 353f 0be2 143e ec85 423d
00000120: 9e46 3dbd cc6f 713f b38f d4bf 035f 073f
00000130: 4ea9 4d3f c7d7 8ebe c2ef 8c3b fae6 043e
00000140: 1498 383e e406 80be 7c98 e1be 01fb 83bf
00000150: 404e 0d3f ac8c 053f f44f 06bf e441 e93e
00000160: 1719 bdbe dab6 2fbf cc2d f2be 68fe bebe
00000170: 7dbf 49be a8c8 423e 7f6b 683f b01e cabe
00000180: 8016 8a3e e7f1 773f 7c69 503f 1f55 c03c
00000190: a036 4cbf 3b6f 42bf 5cf9 4a3f 7c90 a9be
000001a0: 41dc 91bf 5a5a 65bd 75ef 533f 3ac1 10bf
000001b0: 9f8e ea3e a39e b83f 38a5 c9bd 5b2f e8be
000001c0: e44a b93e b30f d33f f3f1 f3bd 93c4 293f
000001d0: a2b0 c4be ff36 aa3e f71d b7bf f0db 8b3d
000001e0: 834e e73d 6727 2c3f 76e5 1a3f 8220 c0bd
000001f0: 3e22 8a3f 7b22 e83e 8469 d4be 1b88 d8be
00000200: 0b3b 00bd 8a5d 18bf 928e 1b3f bb1c d83e
00000210: f7d2 92bf cb16 0cbf fc05 03bf a442 c93e
00000220: effc 2e3e 13aa e1bf 0c61 7bbe 4b94 94bd
00000230: 1909 57be 79f6 18bf 2005 4d3f 714f b33d
00000240: b5c7 d3be 406a c73e 9c2c 6a3f 60c0 aabd
00000250: 9273 af3c d39c 3dbf f252 b23e 1f96 333f
00000260: 3f7b 03bf 4e52 25bf 8138 4e3d 65d2 bfbe
00000270: ec50 7f3f dcda 76bf 2816 6e3f c68f 863d
00000280: e0de b8be 2653 bc3e 9db8 fd3d b6b3 bdbe
00000290: 32a8 4e3f c814 913e 1d8b 89be ea1d ffbd
000002a0: b2e0 213e df72 2fbf 35cb 0fbf 392d c2bd
000002b0: eee0 1c3f f27d 6dbe 24e5 43bf b238 ea3e
000002c0: 8442 85be 9c19 0abf 33b7 62bf 4d0b af3f
000002d0: 152a 0ebe 98b6 92bf 9df1 50be 3690 173f
000002e0: 69ca 543f facb b03e a081 28be e5b4 973e
000002f0: 1c66 b5be 976c 1cbf 871e 63be 42a6 be3e
00000300: 6431 0a3f 3cf6 45bf 794b ae3e 6013 2fbc
00000310: e87f 51bf 6eb0 963f e93f 613f 3173 94be
00000320: 879f 743e 5c5a ab3f d192 5c3f d3cc 95bf
00000330: 0a85 eebe 6f4c 273f db65 af3e fb46 183f
00000340: e75f b53d 4dff aebe 7c1b 0c3f 667e c53e
00000350: 8955 e03e ccd6 b13e 5141 87bf eee2 2bbe
00000360: ce27 bbbd 5246 c0bd f51d 9f3f 8aa3 d8be
00000370: 8db7 91be cbc3 0fbd 27a3 b3bc e433 40be
00000380: a368 c23e 8c62 1ebe 7ce7 a2bf a025 17bf
00000390: b4da 1abe 2472 85bd d71f c0bf a167 b2be
000003a0: 821f abbe 8a8f 84be 0255 9d3f 9acd 35bf
000003b0: de11 ff3e 0e72 483f 7cb7 44be 23cf 583e
000003c0: b99a 963c 9870 6bbf 22ad 4ebe cc7e e3be
000003d0: ed34 81bf 8685 3cbb 46a2 0f3f bdf4 cc3f
000003e0: a65f 43bf d5df 4ebf 7d2b 993f 1f73 26be
000003f0: 0a84 a4bd 7460 a4be c505 223f 2d0c 68be
-0.7587743 -0.09285672 0.5401946 0.47656167 0.29591638 0.29166165 -0.52515095 -1.0937878
0.39176825 -0.48655185 -0.74404293 0.8958126 0.007573483 0.008701153 1.0593042 0.10765218
0.56131744 0.3268486 -1.0102515 -0.04778833 0.23672342 0.6076042 -1.444367 0.5785569
-0.33777177 -1.2732987 0.6263293 -1.2623504 -0.38627058 -0.49660063 -1.0056607 0.6214578
1.0717413 -1.0782176 -0.24683787 -0.11676127 -0.27991965 0.0013226538 0.07470883 0.6076924
0.57623655 0.018282382 -0.46408626 -0.48131186 1.1049842 -0.6495168 -0.46587685 -0.2937176
0.8867984 -0.49328035 -1.468242 0.40501627 -0.29578143 0.4515747 -0.67413455 0.66854155
-0.6891244 0.7042866 -2.0176342 -0.6238457 -0.66273844 -0.26318094 0.13296416 0.14131421
0.979974 -0.5909342 -0.18786152 0.45523846 -0.96686083 0.7075681 0.14539354 0.047491
-0.046209924 0.94311213 -1.6606354 0.5287935 0.80336463 -0.27899 0.0043010423 0.12978736
0.18026763 -0.25005257 -0.4406165 -1.0310975 0.55197525 0.52167773 -0.5246575 0.45558083
-0.36933205 -0.68638384 -0.47300565 -0.37303472 -0.19701953 0.19021857 0.90789026 -0.39476538
0.2697029 0.9685349 0.81410956 0.023478089 -0.7977085 -0.75950974 0.7928674 -0.33118045
-1.1395341 -0.05599437 0.8278726 -0.5654484 0.45811936 1.4423412 -0.09845966 -0.4534863
0.3618995 1.6489166 -0.119113825 0.66315573 -0.3841601 0.33245084 -1.430602 0.06829059
0.11294272 0.67247623 0.6050638 -0.093812004 1.07917 0.45338807 -0.41486752 -0.4229134
-0.031306308 -0.5951773 0.6076442 0.4220942 -1.1470631 -0.5472228 -0.51181006 0.39308655
0.17088674 -1.7630028 -0.24548739 -0.07254847 -0.20999564 -0.5975109 0.80085945 0.087553866
-0.41363302 0.3894825 0.9147432 -0.08337474 0.021417413 -0.7406742 0.34828907 0.7015094
-0.51359934 -0.6457871 0.050346855 -0.37465206 0.9973285 -0.964277 0.9300256 0.06570391
-0.3610754 0.36782187 0.12388728 -0.3705117 0.80725396 0.28336167 -0.26863948 -0.124568775
0.1580837 -0.68534654 -0.56169444 -0.09481282 0.61280715 -0.23192576 -0.76521516 0.4574638
-0.2602731 -0.53945327 -0.8856079 1.3675324 -0.1388324 -1.1461973 -0.20404668 0.59204423
0.83121353 0.34530622 -0.16455698 0.296302 -0.35429466 -0.61103195 -0.22179614 0.3723622
0.53981614 -0.7732885 0.34041956 -0.010685772 -0.81835794 1.1772592 0.87988144 -0.28994134
0.2388898 1.338695 0.86161524 -1.1703132 -0.46585876 0.65351003 0.34257397 0.5948331
0.088561825 -0.34179154 0.5472944 0.38572997 0.43815258 0.3473419 -1.0566808 -0.16785786
-0.091384515 -0.093884125 1.2431017 -0.4231227 -0.2846035 -0.035098832 -0.021928383 -0.18769795
0.37970456 -0.1546728 -1.2726893 -0.59041786 -0.15122491 -0.06515911 -1.5009717 -0.34844688
-0.33422476 -0.25890762 1.2291567 -0.7101685 0.4981832 0.78299034 -0.19210619 0.21172766
0.018384324 -0.9196868 -0.20183232 -0.44432676 -1.0094277 -0.002876611 0.56106985 1.6012188
-0.7631782 -0.8081029 1.1966397 -0.16254853 -0.08032997 -0.32104838 0.63290054 -0.22660895

fc1.bias f4 [16]
00000000: c55c 89bd 1d7f b33e f5a4 143f e337 4abe
00000010: 7d95 9bbf 8c56 55be 51ac ebbe e6b3 86bd
00000020: a902 29bf 136f 1cbf 5a82 e6be b9ed 63bf
00000030: 4c37 e43c de83 61bf 9fae c83f c5fa d43e
-0.067071475 0.35057917 0.58064204 -0.19747882 -1.2154995 -0.20833796 -0.46029904 -0.06577282
-0.66019684 -0.61106986 -0.45021325 -0.8903461 0.027858399 -0.8809184 1.567829 0.41597572

fc2.weight f4 [1, 16]
00000000: 9d3f cabd f659 263e 5a33 5fbf 69a2 33bc
00000010: 5e50 2d3f 54c8 a83f 98ed 30bf 55c3 c83d
00000020: 325c 6a3f 97d5 173e eddb 1abf 69f6 b7be
00000030: d9c9 82bd 950f f1be 9c1e 343f 46df cd3e
-0.098754145 0.16245255 -0.8718773 -0.010964015 0.67700756 1.3186135 -0.6911254 0.09802882
0.9154693 0.14827572 -0.6049183 -0.35930184 -0.06386156 -0.470822 0.70359206 0.40209407
