checkpoint.pth (torch_old, 1054 bytes, 3 tensors)

fc1.weight f4 [16, 2]
0.939173 0.75737774 0.24507108 1.3213291 0.33475694 -0.5596668 -0.30657548 1.1381853
-0.9969166 -0.32542965 0.2265968 0.4919506 0.7838862 -0.23228927 -0.5222222 -0.6437794
0.11517441 1.2776408 0.91626793 0.7928392 -0.52658886 1.0535518 -0.0029609818 0.08154847
0.23326965 0.41036254 0.90871936 1.6728127 0.81757283 -0.53391606 -0.13702624 -0.6544159
00000000: a46d 703f 82e3 413f eaf3 7a3e 5021 a93f
00000010: 4365 ab3e 5346 0fbf 76f7 9cbe 0eb0 913f
00000020: ed35 7fbf b79e a6be fe08 683e f3e0 fb3e
00000030: c4ac 483f 3ddd 6dbe 5bb0 05bf bace 24bf
00000040: 90e0 eb3d bc89 a33f 8990 6a3f 83f7 4a3f
00000050: 87ce 06bf c9da 863f 080d 42bb e202 a73d
00000060: 3dde 6e3e 0a1b d23e d5a1 683f ba1e d63f
00000070: 744c 513f b9ae 08bf 9b50 0cbe cd87 27bf

fc1.bias f4 [16]
-0.3269134 -0.67846143 0.31496146 -0.8617606 -1.5384811 -0.003373989 -1.3612348 0.88104916
-0.5358962 0.3779085 -1.7485944 -0.31933445 -0.70934707 -0.75932825 -0.26811108 0.62068313
00000000: 3161 a7be a6af 2dbf a142 a13e 589c 5cbf
00000010: f3ec c4bf 241e 5dbb f13c aebf 708c 613f
00000020: 7e30 09bf 397d c13e f1d1 dfbf ce7f a3be
00000030: c597 35bf 5663 42bf db45 89be 17e5 1e3f

fc2.weight f4 [1, 16]
1.7602887 1.0012997 -0.49624535 -0.6151514 0.7761362 -0.95582104 -0.25125948 -0.039581
-0.4894358 1.0511205 -0.2147442 0.50757176 -0.2700669 0.5091317 0.094482854 0.23591799
00000000: 2451 e13f 972a 803f df13 febe 907a 1dbf
00000010: ddb0 463f b0b0 74bf 15a5 80be b01f 22bd
00000020: 5497 fabe 1e8b 863f e7e5 5bbe 39f0 013f
00000030: 3546 8abe 7556 023f 3a80 c13d 7c94 713e
