checkpoint2.pth (torch_old, 2399 bytes, 3 tensors)

fc1.weight f4 [16, 23]
000000 d8 b5 c3 bd 60 a6 6f bf bc 02 b3 3e f0 7a 78 bf
       -0.09556168 -0.93613243 0.34963024 -0.9706259
000010 8e 47 dd 3e fc 3e bb 3f 1c ae 7a 3f 34 4f e9 3e
       0.43218654 1.4628596 0.9792192 0.4556824
000020 9c 8d 0b bf d4 6e 83 3f b2 21 6c bf 33 eb 5f bf
       -0.54512954 1.0268197 -0.92238915 -0.8746826
000030 79 17 7d bd f7 62 af bf 7d 7a 97 be c3 83 d8 be
       -0.061789963 -1.3702077 -0.2958564 -0.42288026
000040 e9 4f e0 3e 42 31 9a 3e 01 ea 80 3f cb 11 62 be
       0.43810967 0.30115706 1.0071412 -0.220771
000050 e0 91 0a 3e 36 9d 7c bf 0e ea a9 bc 85 c2 b8 3d
       0.1353221 -0.98677385 -0.020741489 0.09021477
000060 13 04 d0 bc d3 fa 80 3f ab b3 e8 3d aa 85 dc bf
       -0.025392568 1.0076545 0.11362394 -1.7228291
000070 b6 36 bb be 9b 86 9c be 20 0d b0 be a2 83 a9 3e
       -0.3656518 -0.30571446 -0.34385014 0.3310824
000080 5a e9 11 bf 11 59 96 3e ea 67 95 bd 6e c7 27 3e
       -0.5699669 0.29364827 -0.07295211 0.1638467
000090 a3 04 46 3e a7 94 50 3f bd db 17 bf 5c 87 b5 3f
       0.19337706 0.81476825 -0.5931967 1.4181933
0000a0 20 c7 19 3e cb e4 1c bf 0a 19 34 be 09 22 78 3f
       0.15017366 -0.6128661 -0.17587677 0.96926934
0000b0 29 1b 3b bf 37 a8 25 bf db 21 85 3f 0b cd 87 3d
       -0.7308832 -0.647098 1.0400957 0.06630906
0000c0 e6 c9 f8 bd 38 00 14 3f 00 11 37 3f 47 08 4d be
       -0.12147884 0.57812834 0.71510315 -0.20022689
0000d0 04 3b 4d 3f 59 20 34 3f 10 a7 35 3f 3c 4a 92 be
       0.80168176 0.7036186 0.7095804 -0.2857226
0000e0 85 b0 be 3d de 86 fc 3d 39 a5 44 bf 72 89 1b bf
       0.09311012 0.123304114 -0.7681461 -0.607566
0000f0 4b 2d 1a 3f 07 c7 f4 3d 64 7f 00 bf 9a 9d 2f 3e
       0.6022536 0.11952024 -0.5019438 0.17149964
000100 0a 9a 30 3d 33 98 55 bf 39 14 c5 bd 94 c1 33 be
       0.043115653 -0.8343536 -0.09622998 -0.17554313
000110 cc 8a c0 3e 09 7e 79 3d c8 bf 8a bf 45 b9 86 be
       0.37605894 0.060911212 -1.0839777 -0.26313224
000120 3d c9 d8 3e 4f fd be bf 7e 25 b5 bf ce 8a b3 3d
       0.42341033 -1.4921054 -1.4152067 0.08766709
000130 1c e6 1b bf 96 84 c0 3f 41 75 44 3f 9e 33 0b 3d
       -0.60897994 1.5040462 0.76741415 0.033984773
000140 0a 40 51 be 51 55 38 bf 92 9a a9 3f 7c b7 5d bf
       -0.20434585 -0.7200518 1.3250296 -0.866081
000150 1c b7 13 bd 66 86 02 3e a5 9c 93 bf 8f de 10 3f
       -0.0360633 0.12746581 -1.1532179 0.565896
000160 6d 95 74 3f cd b9 05 bf 38 17 da 3e fa 62 4a 3f
       0.95540506 -0.52236634 0.4259584 0.79057276
000170 d2 2b 35 3d d9 f1 a7 3f e4 7a 05 3d fb ca 6e 3f
       0.044231243 1.3120681 0.0325879 0.93278474
000180 0b 50 fc 3d 09 7a 11 bf fe ca 12 3f 71 63 c2 3e
       0.123199545 -0.56826836 0.5734099 0.37966493
000190 de b0 3a 3f d6 a0 39 3f a0 47 91 3e 83 cb 88 3e
       0.7292613 0.7251104 0.28374958 0.26717767
0001a0 0c d1 0d 3f dd 69 90 3e 70 9c cb 3e a4 86 1a 3f
       0.55397105 0.28205767 0.3976779 0.60361695
0001b0 fc 09 51 3e 5d 4c c2 be a4 8b 85 3f 23 0f 8d bf
       0.20413965 -0.37948886 1.043324 -1.1020244
0001c0 89 7c b3 3c 05 ff 63 3f f6 d3 13 3f 5d 3b 24 be
       0.021909969 0.89061004 0.577453 -0.1603827
0001d0 09 f3 a6 be 47 74 60 bd 28 51 8d 3d a4 85 62 be
       -0.32607296 -0.05479839 0.06900245 -0.22121292
0001e0 6b e3 5b bf 5f 3c b6 3e b1 71 00 bf 68 7d d0 be
       -0.8589389 0.35592934 -0.5017348 -0.40720677
0001f0 61 6d fe bd fa e8 77 3f c5 d1 a6 3e 90 6c 71 3f
       -0.12423206 0.9683987 0.32581916 0.9430628
000200 d3 e3 35 3c dc a0 32 be b9 fa 22 bf 88 33 4c bf
       0.011101681 -0.17444175 -0.6366382 -0.7976613
000210 78 c1 a2 3e 31 9a 73 3f 31 f0 aa 3e 79 fa f2 3e
       0.3178823 0.9515715 0.33386377 0.4745672
000220 d3 19 49 3e cd 0c e3 3e d9 fd fa be 44 a8 a3 3f
       0.19638757 0.44345704 -0.49021795 1.2785726
000230 23 ce 1b 3f 1d 37 e4 3e 48 9c 84 bd 17 64 d3 3d
       0.60861415 0.44573298 -0.06475121 0.10321825
000240 f8 9d b5 be 8f 6f 64 3f 58 7f a9 3e 2c 28 3f bf
       -0.35472083 0.89232725 0.33104968 -0.7467067
000250 cc ef 16 3e 90 8f 53 be d7 0e 8c 3c af 3f 02 be
       0.14739913 -0.20660233 0.01709692 -0.12719606
000260 a0 7d 49 3d 39 64 ce be b9 14 ef bd e8 05 09 3e
       0.04919207 -0.4031084 -0.116738744 0.1338116
000270 4e a9 cd 3f 1d 3b e1 bf 93 d6 e3 be f2 a3 03 be
       1.6067293 -1.7596165 -0.44499645 -0.12855509
000280 ad 11 40 be 07 85 d7 3f 09 eb 94 bf 67 96 88 be
       -0.18756743 1.6837472 -1.1634227 -0.26677248
000290 ba c7 9b 3e 84 4d 3b bf ee f8 f3 be ff e8 91 bd
       0.30425817 -0.73165154 -0.47650856 -0.071245186
0002a0 34 6c bc be b0 aa 5f bf ca 9c 5b 3f a3 7b c5 be
       -0.36801302 -0.87369823 0.85786116 -0.3857089
0002b0 c3 a3 06 3f 12 b6 d3 3e 03 bf 7a bf 65 04 94 be
       0.5259363 0.41349846 -0.9794771 -0.28909603
0002c0 7d 3b 61 bc bc cf 83 3f 85 c9 3b 3f 48 36 03 bf
       -0.013747093 1.029777 0.7335437 -0.512547
0002d0 af 2c a5 3f 67 b3 54 3e 00 ea b5 3f b8 94 2a 3f
       1.2904261 0.20771562 1.4212036 0.66633177
0002e0 9f f5 c6 3e bc bd 0d bf 46 4a 48 bf f0 b1 96 3e
       0.3885927 -0.55367637 -0.7823833 0.2943263
0002f0 6a 13 dc be 62 12 ed 3e 7f af 8f bf 2b ab 50 bf
       -0.42983562 0.46303087 -1.1225432 -0.8151118
000300 2b bf b8 be 8c a2 3a 3f d9 10 b2 3f 40 2c 36 bf
       -0.3608335 0.72904277 1.3911391 -0.7116127
000310 93 b4 d3 3f 69 1a 15 bf ec e4 fe 3e 80 85 ea 3e
       1.6539482 -0.58243424 0.4978403 0.45804977
000320 f3 5a c3 bc 2a ef ca bf 7a e8 63 3f f6 c4 5c 3e
       -0.023847079 -1.5854237 0.89026606 0.2155951
000330 3e 7f 5a 3f 47 8d cb bd 83 5e 6f be 59 ba 55 bf
       0.85350406 -0.09939056 -0.23375897 -0.8348747
000340 50 48 a4 3f 29 d4 cc 3f 9f 5f 26 bf 30 ec a0 be
       1.2834568 1.6002246 -0.64989656 -0.31430197
000350 74 28 19 bf f7 f1 de 3e ea 7f 93 bf c6 39 12 bd
       -0.5982735 0.4354398 -1.1523411 -0.03569963
000360 27 40 09 3e b6 ea 5e 3f 71 8b 76 3f 09 63 28 bf
       0.13403378 0.8707689 0.9630652 -0.65776116
000370 2a 49 4e be 7d bc c6 3e e4 26 16 3f 6b 54 5c 3f
       -0.20145097 0.3881568 0.5865309 0.8606631
000380 0a c7 45 3f 55 bc ae bd 11 2b fa 3e 98 b8 60 3f
       0.77256835 -0.08532015 0.48860982 0.8778167
000390 d9 bf 23 3f fd a1 88 bf 60 c4 6d 3d 10 12 5f bd
       0.6396461 -1.0674435 0.058048606 -0.054460585
0003a0 2c 43 5c bf 79 6c 44 3f 47 c9 30 bf 2e 11 28 be
       -0.86039996 0.76728016 -0.69057125 -0.16412804
0003b0 ab 0e a6 3e 0f 40 95 bf 06 a0 80 3b ed 42 04 bf
       0.32433066 -1.1660174 0.0039253263 -0.5166462
0003c0 d0 06 db be e9 a9 44 3f 74 2e aa be 14 20 e5 bd
       -0.42778635 0.7682176 -0.33238566 -0.11187759
0003d0 6f a1 cf be 35 a2 9e be 59 57 3e bf 90 c5 c3 3e
       -0.40552852 -0.3098313 -0.7435203 0.38236666
0003e0 5a 3d 0a bf 60 68 73 bf 8b c1 d1 3e 74 dc 78 bf
       -0.53999865 -0.9508114 0.40967974 -0.97211385
0003f0 81 26 77 3f 70 05 c9 be 28 61 4c bf 27 c8 ce 3f
       0.9654313 -0.3926196 -0.7983575 1.6154832

fc1.bias f4 [16]
000000 23 00 ac 3e b2 85 81 3e 33 46 11 bf c6 27 3a be
       0.33593854 0.25297314 -0.5674774 -0.18179235
000010 13 49 8a 3e f3 3f d2 be 83 d0 84 3e 22 03 08 bf
       0.27008876 -0.41064414 0.25940332 -0.5312978
000020 eb f4 7a 3e 7c 93 97 3d fb a7 01 bf 09 5d 96 3e
       0.24507491 0.07401177 -0.5064694 0.29367855
000030 72 2f 3b 3d 36 85 5f 3e fd b2 2e be 2b cb 85 3e
       0.045699544 0.2182816 -0.17060466 0.26131567

fc2.weight f4 [1, 16]
000000 b9 3b 91 bc 25 3a 90 be d3 e1 3f bf b4 ff d4 be
       -0.017728673 -0.2816936 -0.74953955 -0.41601336
000010 1a b3 06 3f 71 05 0c be 68 a1 95 3f 48 1c 9d bf
       0.5261704 -0.1367395 1.1689882 -1.2274256
000020 20 62 12 3e 83 4c 80 bf 0b 3b 96 be 0b fd b2 bd
       0.14295244 -1.002335 -0.2934192 -0.0873967
000030 b6 1b 12 bf fc 51 8a bd 72 c5 d5 3d 88 a9 82 bf
       -0.57073534 -0.067539185 0.1043805 -1.0207987
