saved_100_episodes/checkpoint1.pth (torch_old, 3999 bytes, 3 tensors)

fc1.weight f4 [32, 23]
0	0x3f9d93ef	1.2310771
1	0x3fd1f4d4	1.6402841
2	0x3ee09997	0.4386718
3	0xbf61c374	-0.8818886
4	0x3f532320	0.8247547
5	0x4008ab13	2.1354415
6	0x3f69aac7	0.9127621
7	0x3ff95a0c	1.9480605
8	0xbc25d93d	-0.010122594
9	0xbf2afc60	-0.66791344
10	0x40102d8d	2.2527802
11	0xbf259de5	-0.6469405
12	0xc00e383b	-2.222182
13	0xbf403614	-0.75082517
14	0xbb56d18d	-0.003277871
15	0x3fa9749c	1.3238711
16	0xbfd9a024	-1.7001996
17	0xbf5557cf	-0.8333711
18	0xbfcdce6d	-1.6078621
19	0x3f94bfa2	1.1620982
20	0xbf97e7d8	-1.1867628
21	0x3fe99e14	1.8251367
22	0xbf64b8f2	-0.89344704
23	0xbf203bc1	-0.6259118
24	0x3fa43914	1.2829919
25	0xbfb55ac4	-1.4168324
26	0xbebb08af	-0.36530063
27	0x3fdbc569	1.716962
28	0xbd09deea	-0.033659853
29	0x3edb8e7d	0.42882147
30	0xbffc9aa5	-1.9734694
31	0x3f0e808e	0.5566491
32	0xbfe59989	-1.793748
33	0xbeaec1aa	-0.3413213
34	0xbfa7c97f	-1.3108367
35	0xbd1f8836	-0.03894826
36	0x3f7ff005	0.99975616
37	0x3f8c0356	1.0938518
38	0xc00707cc	-2.109851
39	0xc028667b	-2.631255
40	0xbfc8e80d	-1.5695816
41	0x3fe323ad	1.7745262
42	0x3ecc40e9	0.39893273
43	0xbe8c509d	-0.27405253
44	0x3f41adf8	0.7565608
45	0xc02f2df8	-2.7371807
46	0x3f8a8375	1.0821368
47	0x3eae82be	0.34084123
48	0x3f2769f3	0.6539604
49	0xbf2d933a	-0.67802775
50	0x3d4cfed4	0.05004771
51	0xbf25785f	-0.64636797
52	0xbf74ff23	-0.9570181
53	0xbf920255	-1.1406962
54	0xc0052c2e	-2.0808215
55	0x4001776b	2.0229137
56	0x4000a573	2.0100982
57	0x3faa92db	1.3326067
58	0xbed919b4	-0.42402422
59	0x3f331449	0.6995283
60	0x3fbdde00	1.4833374
61	0xbf54cadc	-0.8312204
62	0xbffd7e5e	-1.9804189
63	0xbab444d0	-0.0013753418
64	0xbd164400	-0.036685944
65	0xbf34cd5e	-0.70625865
66	0xbfcb359e	-1.5875738
67	0x4000522f	2.005016
68	0x3e88bd7a	0.2670706
69	0x3fedb8e5	1.857205
70	0x3f491b96	0.7855772
71	0xbfb7d565	-1.4361998
72	0xbffdca1a	-1.9827302
73	0x3fb958d3	1.4480232
74	0x3f8351cd	1.0259339
75	0x3f6d4d89	0.92696434
76	0x3ea728a9	0.3264821
77	0x3e43c22d	0.19117041
78	0xc0386bc3	-2.8815773
79	0x3e115b7c	0.14195055
80	0xbf1d8267	-0.61527103
81	0x3f31796f	0.6932592
82	0x3e47e479	0.19520749
83	0xc00992c4	-2.1495829
84	0x3ee595ac	0.44840753
85	0x40553efa	3.3319688
86	0x3fa94571	1.3224317
87	0x3fb886ac	1.4416099
88	0x3e896ecf	0.26842353
89	0x3fbda3c1	1.4815599
90	0xbe19d9eb	-0.15024535
91	0xc0792e74	-3.8934603
92	0xbf8fb45e	-1.1226919
93	0x40832296	4.097972
94	0x3ed34188	0.41260934
95	0xbf2a6462	-0.6655942
96	0xbfd5b27a	-1.6695092
97	0x3fd027db	1.6262163
98	0xbf9f2e1f	-1.243595
99	0x3f52b646	0.8230938
100	0x3e3fa448	0.18715012
101	0xbdb612aa	-0.08890279
102	0xbf051f13	-0.5200054
103	0x3e9a08b2	0.3008476
104	0xbf878794	-1.058825
105	0xc034d6db	-2.8256137
106	0x40347cfe	2.820129
107	0xc01ee4f5	-2.4827244
108	0x402e51b8	2.7237377
109	0xc00847fa	-2.129393
110	0xc013969e	-2.306068
111	0xbf8dabdf	-1.1068076
112	0x3f81a0ce	1.0127199
113	0xbec19a44	-0.37813008
114	0x3e8830ff	0.2659988
115	0xbf85acde	-1.044338
116	0xbf9e8333	-1.2383789
117	0xc025e544	-2.5921183
118	0xbfe7ae63	-1.8100094
119	0xbf9d5b3b	-1.2293466
120	0x3f0ee166	0.5581268
121	0xbf8252a1	-1.0181466
122	0x3fa345e4	1.2755704
123	0x3fdc3874	1.7204728
124	0xc043bba3	-3.0583274
125	0x3db4cc76	0.0882806
126	0x3dbedf9a	0.09319992
127	0x3edaa4e9	0.4270394
128	0xbf879c57	-1.0594586
129	0xc00e4afd	-2.223327
130	0x3fc17bff	1.5115966
131	0x3fec3708	1.8454294
132	0xbfefa290	-1.8721485
133	0x409a3251	4.818642
134	0xbfd79f99	-1.684558
135	0x40092576	2.1429114
136	0xbdd0fb35	-0.10204164
137	0x3fc9cb16	1.5765102
138	0xbd8ac343	-0.067755245
139	0xbf6a7483	-0.9158403
140	0xbe78a504	-0.24281698
141	0x3fa8fa85	1.3201452
142	0xbedda167	-0.43287203
143	0xbf1bfc42	-0.6093179
144	0x3e803941	0.2504368
145	0xbf4f1808	-0.80896044
146	0x400771e5	2.1163266
147	0x3f1666d9	0.58750683
148	0x3fb8bc8b	1.4432539
149	0x3fb88ad5	1.4417368
150	0xbef6704b	-0.48132548
151	0x3ea631a3	0.32459745
152	0x3f95f421	1.1715127
153	0x3f49df68	0.78856516
154	0x3f157daf	0.583949
155	0xbeb81dcf	-0.35960242
156	0xbf9751b9	-1.1821815
157	0xbf6aa1dd	-0.91653234
158	0xbe090582	-0.13381007
159	0x3cf97e20	0.030455649
160	0xbfd504e5	-1.6642119
161	0x403636a9	2.8470862
162	0xbfc154a3	-1.5103954
163	0x3fda95f8	1.7077017
164	0xc0005c51	-2.0056345
165	0xc09858b8	-4.76083
166	0xbfd06233	-1.6279968
167	0xbfd6a9ae	-1.6770532
168	0x3d74e6f0	0.05979055
169	0x3efafccf	0.49021003
170	0xbfa9bb6d	-1.3260323
171	0xc05ac8b5	-3.4185002
172	0x4042e5e9	3.0452826
173	0xbfd4cb5c	-1.662456
174	0xbf331128	-0.69948053
175	0x3e903777	0.28167316
176	0x404bda61	3.1852038
177	0xbfd0ff0f	-1.6327838
178	0xbf23d0cc	-0.63990474
179	0xbf4eb935	-0.80751354
180	0xbfad32ae	-1.3531091
181	0x4064aa23	3.5728843
182	0xbf1d0e96	-0.6135038
183	0xc02bb783	-2.6830757
184	0x404f13f9	3.235594
185	0x3fe0356f	1.7516307
186	0xc00fd962	-2.247643
187	0xbf890afa	-1.0706475
188	0xbee2058f	-0.44144866
189	0x3f8f6dce	1.1205385
190	0xc01cee5b	-2.452048
191	0x3f340bd5	0.70330554
192	0x40091748	2.142046
193	0xbffc348b	-1.9703535
194	0x3f1a4525	0.60261756
195	0x3f07b9a8	0.53017664
196	0x3fe61245	1.7974325
197	0x3f08218b	0.5317618
198	0xc000bd7f	-2.011566
199	0xbd9be204	-0.076114684
200	0xbecfc4af	-0.40579745
201	0xc02c0474	-2.6877718
202	0x3faa478b	1.3303083
203	0x3d06f8a7	0.032951977
204	0xbb215540	-0.0024617463
205	0xbdae9160	-0.08523822
206	0xbf13b167	-0.5769257
207	0xbbec4063	-0.007209824
208	0xbf0bd00d	-0.54614335
209	0xc016b0fd	-2.3545525
210	0xc03487f8	-2.8207989
211	0xbf991a5d	-1.196117
212	0xbf72fde9	-0.94918686
213	0x4073b19b	3.8077152
214	0xbfa5d009	-1.2954112
215	0xbfd3a8f6	-1.6535938
216	0xc02f15ac	-2.7356977
217	0x3f404767	0.7510895
218	0xbfc3b501	-1.5289613
219	0x3f9cbc3c	1.2244945
220	0x3f9b9a44	1.2156453
221	0x3ff87729	1.9411365
222	0xc04c9b60	-3.1969833
223	0x3e5f63c0	0.21815395
224	0x3fb12ba1	1.384144
225	0xbff9592d	-1.9480339
226	0xbfbefcdc	-1.4920917
227	0xbec02a9a	-0.37532502
228	0x3e5545b0	0.20827365
229	0xbfa762c7	-1.307702
230	0xbf82e9b6	-1.0227573
231	0x3f05545b	0.5208184
232	0xbf5afea0	-0.85544777
233	0x4009319b	2.1436527
234	0xc0116d48	-2.272295
235	0x3efbb2ac	0.49159753
236	0xbfc63b10	-1.5486774
237	0x3f08fb1e	0.53508174
238	0x406b002a	3.671885
239	0xbfac826f	-1.3477305
240	0x3f600074	0.8750069
241	0xc0050f79	-2.0790694
242	0xbfbc530f	-1.4712847
243	0x3f7ba6e9	0.9830156
244	0x3f53a014	0.82666135
245	0x3f96121a	1.1724274
246	0xbfba7292	-1.4566214
247	0x40150a00	2.3287354
248	0xbfd452c5	-1.6587759
249	0xbfd157f6	-1.6354969
250	0x401eb5fb	2.4798572
251	0x3f2b4d2f	0.6691465
252	0xc0611bdb	-3.5173252
253	0x404a35da	3.1595368
254	0x3fa7b57d	1.3102261
255	0xbfd0386f	-1.6267222

fc1.bias f4 [32]
0	0xbf98bbbc	-1.1932292
1	0xbed828f5	-0.42218748
2	0x3ff28ef6	1.8949878
3	0xbf8a7af0	-1.0818768
4	0x400fba87	2.2457597
5	0xbe8b8788	-0.2725184
6	0xbf573dc6	-0.84078634
7	0x3f754c68	0.9581971
8	0xbfc7a6c3	-1.5597767
9	0x3fd64b45	1.674172
10	0x3fa46959	1.284465
11	0xbeddea7f	-0.4334297
12	0x3f030c89	0.51191
13	0xbf325c02	-0.6967164
14	0xbf938bf8	-1.152709
15	0x3f78c483	0.97174853
16	0x406874f0	3.6321373
17	0x3e3eadba	0.18620959
18	0x3ec1ba8c	0.37837636
19	0x3facf156	1.351115
20	0x3e8d8840	0.27643013
21	0xbedeee11	-0.43541005
22	0x3fa98fac	1.324697
23	0xc0257ded	-2.585811
24	0x3e009ddc	0.12560219
25	0x3f88c4c3	1.0685047
26	0x40418b32	3.0241208
27	0x3fa90f39	1.320777
28	0x3ff29948	1.8953028
29	0x3f1a9ec8	0.6039853
30	0xbff09aab	-1.8797201
31	0x4027ebdf	2.6237714

fc2.weight f4 [1, 32]
0	0xbf2b4d6a	-0.66915
1	0x3efa8bcd	0.48934785
2	0x3f01cce2	0.5070325
3	0xbf8e6c33	-1.112677
4	0x3f9bfb7d	1.2186123
5	0xbf3abdd7	-0.7294592
6	0x3ca26d3f	0.019827483
7	0xbf346e0a	-0.70480406
8	0xbdf627b0	-0.120192885
9	0xbf07388b	-0.5282065
10	0x3f880162	1.0625422
11	0xbf898944	-1.0745015
12	0xbef478f6	-0.47748536
13	0xbf01d932	-0.5072204
14	0x40986ca3	4.7632613
15	0x3f9c7296	1.2222469
16	0x3e5cc53e	0.21559617
17	0xbeb810b3	-0.3595024
18	0xbf9c12cf	-1.219324
19	0x3eaedc1d	0.34152308
20	0xbf787d0f	-0.97065824
21	0x3f0f8859	0.56067425
22	0xbf7bcc90	-0.9835901
23	0xbf3e9312	-0.7444316
24	0x3ecdc20a	0.40187103
25	0x3f531b31	0.82463366
26	0xbfe42fb4	-1.7827058
27	0x3ec5fd20	0.38669682
28	0xbfd7857e	-1.6837614
29	0x3f9c7cfc	1.2225642
30	0x3f37369e	0.71567714
31	0xbff42ade	-1.9075582
