saved_100_episodes/checkpoint3.pth (torch_old, 3999 bytes, 3 tensors)

fc1.weight f4 [32, 23]
-2.5990076 -2.9967287 0.6427492 1.2260659 2.646918 -2.5737877 1.5709956 -0.42458436
0.6269988 3.9387321 -0.23523557 1.8692136 -3.5674002 0.504249 -0.24105279 1.991222
-1.3692015 -1.2144693 -3.0914686 -0.026342219 1.9079195 3.3824265 -0.8157415 -2.981352
-1.0974153 1.6522634 -0.3240103 0.88139814 0.57459646 1.7706052 0.7139109 0.86256385
-2.619011 -0.1366 -0.4606051 -1.3191929 -1.8579966 2.876665 -0.6226203 -0.97190505
-2.4787955 -4.107248 2.1053095 1.1797595 -1.2279528 0.75085115 -1.1544287 -1.1197258
-2.0292509 -0.4622462 -0.09316773 -0.6547839 -0.8411829 1.8458037 -0.5300783 -1.5548401
-0.41115695 2.431057 -1.0649917 1.743322 -0.90612876 -3.1379254 -1.6645849 2.0226352
-0.3222559 2.3414576 2.850918 0.6917007 0.51998097 -2.3990264 -1.9315763 -0.61993814
-0.1947165 0.44236863 0.06282601 -0.4688174 1.535391 -2.9409394 -2.2678928 -0.10819794
-2.0707998 2.7285209 -2.69894 1.6624774 -1.4058862 0.442214 0.7167273 1.5348372
0.7318848 0.81503385 1.9089144 0.7856267 1.3207141 -1.4682698 -0.80460495 3.8536088
-1.0284753 0.32543632 -2.9186406 -0.18485416 1.3982105 1.1495724 2.0415895 -0.6395729
0.37851083 -2.281124 2.1013727 -0.5271642 -2.9065099 -0.28561217 -1.4913944 -2.229009
-1.7114273 -0.37728083 -0.69006974 -0.3213722 3.3349612 2.3821752 -0.67051816 -1.8498112
-3.5405488 1.93297 2.9669244 0.5739814 1.3030832 -1.4613024 -0.17349271 0.81342524
-1.2889146 0.5953119 -1.5678257 -0.21843624 -2.38218 2.0300195 -1.5584915 -2.0646327
-0.35768872 2.8235664 -1.6591997 -1.2194961 0.32485035 0.8118783 2.5637372 0.5936377
-0.9444781 -2.4516542 1.739974 -1.3329362 -1.1632746 -2.5409021 -2.430931 0.63722926
-2.5084202 -1.0889292 4.53682 0.49734065 2.4004724 -0.49497095 -1.4303935 -1.9780077
-1.4276606 -1.8367003 -0.28468162 -0.4418893 0.5724825 0.78919494 1.0877784 -0.6918241
0.77321714 -1.3857535 -0.32633054 1.6037169 -2.6825864 0.28872764 -1.9542652 -1.1436336
-0.13416603 -1.988271 -0.37800252 1.5104176 2.6084146 -0.7608365 -2.381925 -2.242018
-4.178318 0.43537456 -1.4647706 1.1491172 -1.6797084 2.266695 0.2887195 0.86424655
-2.2942314 -3.325084 0.38230336 0.8722526 -0.8718018 -1.7331786 0.8299372 -3.2046788
0.67582774 -1.1806998 0.5499801 -0.48357555 -3.2833939 -3.2268426 -0.34091085 1.5448605
2.367355 0.43975303 -1.1656156 0.24534464 -2.0703871 -2.299004 1.2021393 2.568203
-2.002609 -0.48077628 -0.8022617 -1.4188416 0.42639726 -0.58866143 -0.55100787 -0.18963957
-0.7679243 3.599231 1.7037466 0.43436652 2.2214117 -1.991315 -1.5769413 1.7660091
-1.0844805 -1.9574666 1.4232529 0.10904764 0.65634346 1.1439596 0.86530775 0.2343417
-0.51034117 -3.3757253 0.69661736 -0.05359682 1.459992 0.6611894 2.7414343 3.126663
-0.14197908 0.9196991 -1.5256417 1.1118805 -2.2442398 -2.2983506 2.7828057 2.6151445
00000000: 2456 26c0 67ca 3fc0 368b 243f baef 9c3f
00000010: 1b67 2940 f0b8 24c0 6216 c93f 1f63 d9be
00000020: fe82 203f 3014 7c40 98e1 70be 6442 ef3f
00000030: 4950 64c0 7616 013f 8bd6 76be 5de0 fe3f
00000040: ff41 afbf bb73 9bbf 9fda 45c0 a3cb d7bc
00000050: b536 f43f ad79 5840 6fd4 50bf 79ce 3ec0
00000060: 1b78 8cbf 5e7d d33f aee4 a5be 4fa3 613f
00000070: c118 133f 31a3 e23f ddc2 363f fcd0 5c3f
00000080: e09d 27c0 dfe0 0bbe 6fd4 ebbe 50db a8bf
00000090: d5d2 edbf 481b 3840 0b64 1fbf c5ce 78bf
000000a0: 96a4 1ec0 936e 83c0 64bd 0640 5c02 973f
000000b0: 8f2d 9dbf c837 403f 52c4 93bf 2d53 8fbf
000000c0: 3fdf 01c0 89ab ecbe b9ce bebd eb9f 27bf
000000d0: c357 57bf 4c43 ec3f 36b3 07bf 0005 c7bf
000000e0: 2a83 d2be 7096 1b40 a651 88bf 2d25 df3f
000000f0: 0ef8 67bf c5d3 48c0 1e11 d5bf db72 0140
00000100: bafe a4be 71da 1540 7175 3640 4c13 313f
00000110: 791d 053f a689 19c0 e43d f7bf 44b4 1ebf
00000120: c363 47be 247e e23e ecaa 803d d608 f0be
00000130: b187 c43f 5a38 3cc0 2825 11c0 e296 ddbd
00000140: fc87 04c0 16a0 2e40 6fbb 2cc0 0fcc d43f
00000150: 14f4 b3bf e069 e23e 717b 373f 8c75 c43f
00000160: cd5c 3b3f 0fa6 503f 4f57 f43f d51e 493f
00000170: 290d a93f 44f0 bbbf 97fa 4dbf 87a1 7640
00000180: 14a5 83bf 979f a63e 02cb 3ac0 694a 3dbe
00000190: 90f8 b23f 3025 933f 67a9 0240 0dbb 23bf
000001a0: 2ccc c13e f0fd 11c0 e47c 0640 3cf4 06bf
000001b0: 4204 3ac0 c23b 92be 03e6 bebf 15a8 0ec0
000001c0: 0d10 dbbf f42a c1be 69a8 30bf e68a a4be
000001d0: 0170 5540 8f75 1840 14a7 2bbf 9dc6 ecbf
000001e0: 5a98 62c0 906b f73f 17e2 3d40 72f0 123f
000001f0: 6ecb a63f f50b bbbf 13a8 31be a33c 503f
00000200: 27fb a4bf 5c66 183f 83ae c8bf c0ad 5fbe
00000210: a375 18c0 d7eb 0140 a67c c7bf f122 04c0
00000220: fa22 b7be 50b5 3440 a860 d4bf 7318 9cbf
00000230: c952 a63e 42d7 4f3f 4514 2440 a4f8 173f
00000240: 51c9 71bf e7e7 1cc0 78b7 de3f a79d aabf
00000250: 2fe6 94bf 249e 22c0 6094 1bc0 7521 233f
00000260: f589 20c0 0862 8bbf a12d 9140 6fa3 fe3e
00000270: 57a1 1940 d56c fdbe 2217 b7bf 5b2f fdbf
00000280: 95bd b6bf ff18 ebbf cac1 91be 503f e2be
00000290: 378e 123f ae08 4a3f 533c 8b3f 621b 31bf
000002a0: 8ff1 453f 5f60 b1bf cc14 a7be 9846 cd3f
000002b0: 7faf 2bc0 1cd4 933e 5d25 fabf 9662 92bf
000002c0: d262 09be aa7f febf 8c89 c1be 5d55 c13f
000002d0: 44f0 2640 2ec6 42bf 7671 18c0 397d 0fc0
000002e0: c8b4 85c0 6ae9 de3e 9a7d bbbf 4616 933f
000002f0: af00 d7bf 8811 1140 0bd3 933e 433f 5d3f
00000300: b0d4 12c0 2dce 54c0 44bd c33e f24b 5f3f
00000310: 672e 5fbf ccd8 ddbf c476 543f 7519 4dc0
00000320: 0c03 2d3f 2c21 97bf 7fcb 0c3f 3797 f7be
00000330: 2023 52c0 9784 4ec0 de8b aebe fdbd c53f
00000340: bf82 1740 4f27 e13e e432 95bf a03b 7b3e
00000350: 3981 04c0 e222 13c0 b3df 993f 705d 2440
00000360: bf2a 00c0 4f28 f6be 0661 4dbf 9a9c b5bf
00000370: be50 da3e 84b2 16bf da0e 0dbf e030 42be
00000380: b096 44bf cd59 6640 5e14 da3f 4a65 de3e
00000390: 9c2b 0e40 69e3 febf 36d9 c9bf 960c e23f
000003a0: 42d0 8abf 448e fabf 272d b63f 5e54 df3d
000003b0: 2006 283f 456d 923f cf84 5d3f 45f7 6f3e
000003c0: b8a5 02bf e20b 58c0 8455 323f 5788 5bbd
000003d0: 05e1 ba3f b543 293f a973 2f40 3f1b 4840
000003e0: f762 11be 6671 6b3f 3a48 c3bf 1a52 8e3f
000003f0: a0a1 0fc0 2d18 13c0 7d19 3240 875e 2740

fc1.bias f4 [32]
-0.6979785 -0.1288855 2.3396292 0.2685302 2.4960089 1.2108476 -4.0693197 -1.10173
0.47101733 -2.2837477 1.8993522 -0.59234405 -0.37243098 0.23117779 -0.08606271 -1.080877
-0.60570186 -2.7647586 3.323488 2.4430332 -0.69505227 0.072546735 0.935962 -3.272963
-1.1761336 -0.6314968 -1.7753289 0.45236817 -2.4388096 0.26971433 0.74493784 -0.6227665
00000000: b8ae 32bf 8ffa 03be 7cbc 1540 ca7c 893e
00000010: 9cbe 1f40 0efd 9a3f de37 82c0 7d05 8dbf
00000020: 2f29 f13e ec28 12c0 f91d f33f dca3 17bf
00000030: 46af bebe dfb9 6c3e a541 b0bd 2d5a 8abf
00000040: 470f 1bbf cef1 30c0 07b4 5440 a85a 1c40
00000050: f2ee 31bf 6293 943d 359b 6f3f 3a78 51c0
00000060: 8c8b 96bf c6a9 21bf fa3d e3bf cd9c e73e
00000070: 7515 1cc0 ff17 8a3e 3fb4 3e3f a06d 1fbf

fc2.weight f4 [1, 32]
-0.005102476 -2.4081857 -4.896361 0.42843273 2.0183387 -1.6029131 1.5733578 0.8953533
-1.5544624 -1.1704975 -0.32896292 1.571154 -1.1419303 -0.97637486 -3.1183572 1.9142104
-0.42630646 -2.9117749 1.411427 -1.581577 -0.82544684 0.59061825 -0.5220378 -0.17051804
-0.633829 1.8266311 -0.19492002 2.2169206 -1.2510445 0.46919337 -1.7683241 -0.62131536
00000000: ac32 a7bb b71f 1ac0 fdae 9cc0 895b db3e
00000010: 762c 0140 422c cdbf ca63 c93f e035 653f
00000020: a0f8 c6bf ddd2 95bf d46d a8be 931b c93f
00000030: c62a 92bf b4f3 79bf 2a93 47c0 d904 f53f
00000040: d744 dabe 855a 3ac0 a4a9 b43f 1d71 cabf
00000050: 7c50 53bf c232 173f 45a4 05bf 489c 2ebe
00000060: 9e42 22bf 0ccf e93f 1d99 47be 07e2 0d40
00000070: 3a22 a0bf 1d3a f03e 7258 e2bf 860e 1fbf
