saved_100_episodes/checkpoint0.pth (torch_old, 3999 bytes, 3 tensors)

fc1.weight f4 [32, 23]
00000000: 6cc0 1abf c0a3 e83e 5dc0 c0bf a581 b43e
00000010: 4c9c 4dbf 1777 2a3f 6e64 733e 7a35 b73e
00000020: f7ff 053f d22e f1be 5fe6 933f 448e 40bf
00000030: e5c2 1040 563e b33f a3e7 84c0 4b3f b43f
00000040: 170f d2be aa74 a23f e281 b3be b277 4a40
00000050: f674 cbbf 1d96 e73d b309 f5bf 6821 4fc0
00000060: 4158 5240 ffc1 10be 9d18 1e40 31a6 90bf
00000070: 05ea 053e 10a2 883f b396 583f 2f6a 813e
00000080: 88e6 4dc0 a8b9 14c0 81a0 21c0 cb71 b3bf
00000090: 2966 fc3e 289f 5cbf 8840 cf3e b49d 953f
000000a0: ad5c cb3f b545 e53e 4f75 203f 939b d1bf
000000b0: e1af 4cbf 2851 9fbf aaf8 4ebf 2d3b b53f
000000c0: 815e b5bf ff45 01c0 d9d5 4140 a4ff b0bf
000000d0: 89e0 93bf a51b f4bf 3cce 163f 952e 6fbe
000000e0: 338f 11c0 821c a13f 8af0 6cbf 11ae 98bf
000000f0: bf69 bcbf 4d09 793f 9cc4 33c0 77f5 b43f
00000100: f0df 6540 13bc 49bc 9286 d33e e12d 6c40
00000110: a3ca e8be a35b bbbf 353f d63f 96db 0540
00000120: 85a8 09c0 5e50 4140 b9f2 b93f d986 24c0
00000130: 4c8d 783f 1d8f 99bf a816 3abf 8669 123f
00000140: 8f7a 78bf f920 28bf ef2f 3bbf 2898 1ebe
00000150: e9df 03c0 5e4c e23f 7723 f4bf dbbd e73f
00000160: 52c7 c53e 77ab 5d3f 0bf4 48be 6988 363e
00000170: 6045 dabf 07f8 bc3f 9b6a dc3e 31cc 4740
00000180: b5ee 47bf cc18 89bf 9d0e 49be 7159 49c0
00000190: dc54 3540 d875 b0bf 1fd6 99bf 1aee 84bf
000001a0: a4c5 94bf a55a e33f f777 f2be de4b 0dbe
000001b0: 6365 f4bc 860a 5e3f 0e0e d43f 2763 0abf
000001c0: 2d41 da3f f989 603f 90a6 8bbf 1258 47bd
000001d0: 2093 d7bf 8b83 8abf ac34 4dc0 c201 61c0
000001e0: e532 6fbf 1414 0140 ef68 b83f 3f8f 3fbf
000001f0: 6b78 bf3f b29a a6bf 7fc3 1840 e654 b53f
00000200: 31c5 923f aaba 7c3f b761 d73f b2e0 6840
00000210: 7060 06be e55f 143e 34b5 0d40 3f9c ddbf
00000220: 08a8 06bf 1c53 2340 70cc c4be f322 60bf
00000230: 6bee d6bf d977 603e f4df 86be b27d c3bf
00000240: 7224 e93f 375b 3ac0 c8b3 523f 53f6 4f3f
00000250: 57e1 99c0 59f5 1d40 9a4f db3c a115 01bf
00000260: a4c9 af3f b261 21bf b227 3bc0 22c2 913f
00000270: ea80 8bbf 5406 c6bf 61e4 3dc0 5a9e 733f
00000280: 9592 c8bf 4a7f 813f c140 25bf d28e 88bf
00000290: 9f84 253f 413e 7c3f 561d 26bf c359 e33e
000002a0: 0037 dfbf 51b4 91be 18ac a2bf eb59 253f
000002b0: ef02 743f ff7e 9f3f d1f0 e6be 953f edbe
000002c0: 8739 143e 99fe 243f e89f 5040 56cd f83e
000002d0: bd90 16c0 9e76 69c0 b05b 42bf 8f08 02c0
000002e0: 4ec8 393e 9c23 40bf cc9c 5b3e f01e 893f
000002f0: 6c9b 173c 4231 d03e c834 8ebf 42d2 3e3e
00000300: 3c82 3ebf f10c 083f 0f7f 91bf 006f 493f
00000310: 14cb 1340 40c3 83bf 2a99 5ebe aa8e c7bf
00000320: 08a4 7fbf b9f0 58bf 2576 f63f 9bcf 01bf
00000330: c3ac 5c40 9a7c 7abf 5e37 6fbf cb4e 993f
00000340: b766 9ebe 232c 29c0 31cf 0dc0 9ae8 823f
00000350: d8a1 b23e af01 49bf fa8d e4bf d2ac 04c0
00000360: ee65 f53f 33ab 5dbd 5bd6 e1bf a331 a3bf
00000370: 9ec0 2cbf 4811 aebf 952c 8fbf 9c92 87c0
00000380: 1a2f 82bf a8ac 4d3f c75e 703f 4492 983e
00000390: f9fa 9e3f 1631 febf bd10 2ebf ecf1 69c0
000003a0: bfee 44bb b1c8 c13f bc6d a9be 81ff d73e
000003b0: 0c0e 6ebe 2b15 f6bf fbca c73f d503 96bd
000003c0: 71be 14c0 e4f8 2fbf f6ce d03f b40a 7040
000003d0: 0d13 1b40 f7fc e63f d2f0 a1be d45c 03bf
000003e0: dde8 7b3f 04df 17c0 b6c7 bbbe 902f 9fbf
000003f0: 41df 9dbf c38b cbbe 419d 7a40 04b2 233f
-0.6044986 0.4543743 -1.5058705 0.3525516 -0.80316615 0.66587967 0.2376878 0.35782987
0.52343696 -0.47106034 1.1554679 -0.7521708 2.2618954 1.4003398 -4.153276 1.4081815
-0.41027138 1.2691853 -0.3506003 3.1635556 -1.5895069 0.11307929 -1.9143585 -3.236414
3.2866366 -0.14136504 2.4702523 -1.1300718 0.13077553 1.0674458 0.8460495 0.25276324
-3.2171955 -2.3238316 -2.5254214 -1.4019102 0.49296692 -0.86180353 0.4047892 1.1688752
1.5887657 0.44779745 0.62679 -1.6375602 -0.7995587 -1.2446642 -0.8084818 1.4158684
-1.4169465 -2.0198972 3.0286772 -1.3828015 -1.1552898 -1.9070936 0.5890844 -0.23357613
-2.2743652 1.2586825 -0.92554533 -1.1928121 -1.4719771 0.97279817 -2.808875 1.413741
3.591793 -0.012312907 0.41313607 3.6903002 -0.454671 -1.463734 1.6738039 2.0915275
-2.1509106 3.0205302 1.4527198 -2.5707304 0.970906 -1.19968 -0.7269082 0.57192266
-0.9706201 -0.6567531 -0.73120016 -0.1548773 -2.0605414 1.7679555 -1.9073323 1.8104814
0.38628632 0.8658976 -0.19624345 0.17825474 -1.7052422 1.4763192 0.43050084 3.1218379
-0.78098613 -1.0710692 -0.19634481 -3.146084 2.8333044 -1.3785963 -1.201847 -1.0385163
-1.1622815 1.7762038 -0.4735715 -0.13798472 -0.029833501 0.8673481 1.6566789 -0.54057544
1.705114 0.8771053 -1.0910206 -0.048667975 -1.6841774 -1.0821394 -3.2063398 -3.5157323
-0.93437034 2.0168505 1.4407023 -0.7482795 1.4958624 -1.3015959 2.3869321 1.4166534
1.1466428 0.98722327 1.6826695 3.6387143 -0.13122725 0.14489706 2.2141848 -1.7313308
-0.52600145 2.5519476 -0.38437223 -0.8755333 -1.6791509 0.21920718 -0.26342738 -1.5272734
1.8214247 -2.9118173 0.82305574 0.81235236 -4.8087573 2.4680998 0.026771355 -0.5042363
1.3733411 -0.63039696 -2.9242978 1.138737 -1.0898716 -1.5470681 -2.9670641 0.951635
-1.5669733 1.011697 -0.6455193 -1.0668585 0.6465549 0.9853249 -0.64888513 0.4440442
-1.743866 -0.28457883 -1.2708769 0.6459033 0.95316976 1.2460631 -0.45105603 -0.46337572
0.1447507 0.64450985 3.25976 0.4859416 -2.3525841 -3.6478648 -0.75921154 -2.0317724
0.18142816 -0.75054336 0.21446532 1.0712566 0.009253364 0.4066258 -1.1109858 0.18634894
-0.7441747 0.53144747 -1.13669 0.78685 2.30927 -1.029396 -0.21738115 -1.5590413
-0.99859667 -0.84742314 1.9254805 -0.50707406 3.4480445 -0.97846377 -0.9344386 1.1977171
-0.3093774 -2.643319 -2.215771 1.0227234 0.34889102 -0.78518194 -1.7855828 -2.073048
1.9171731 -0.054118346 -1.7643541 -1.2749523 -0.6748141 -1.3599024 -1.118548 -4.2366467
-1.0170624 0.8034158 0.9389462 0.29799092 1.2420341 -1.985873 -0.6799429 -3.6553907
-0.003004953 1.5139371 -0.33091533 0.42187122 -0.23247546 -1.922521 1.560882 -0.0732495
-2.3241236 -0.6873915 1.631316 3.7506533 2.4230378 1.8045949 -0.31629044 -0.5131352
0.98402196 -2.3729868 -0.36675805 -1.243639 -1.2333757 -0.39755067 3.915848 0.63943505

fc1.bias f4 [32]
00000000: 2424 8ebe 6023 b33f 4a3d ca3e 0544 dcbd
00000010: f228 83bf eb1c 933e 3646 80c0 5866 9fbf
00000020: 4208 6bbf 6ef0 1bc0 55c9 553f cb5e 22c0
00000030: 6a36 64bf 669b febf ec27 31bf 5747 73bf
00000040: 7817 ce3f 22f7 1ac0 f7c2 393f 8019 8abf
00000050: cfca 0e3f 2df9 92bf 1d74 5ebd 158a 9ec0
00000060: 99aa 833f 070a c140 9de6 41bf 13b6 21c0
00000070: 5146 53bd 100a af3f c41b db3e ef27 bbbe
-0.27761948 1.399517 0.39499885 -0.10755161 -1.024687 0.28733 -4.0085707 -1.2453108
-0.91809475 -2.4365497 0.83510333 -2.5370357 -0.8914553 -1.9891174 -0.6920154 -0.9503073
1.6100912 -2.4213338 0.7256312 -1.0789032 0.5577821 -1.1482292 -0.054309953 -4.9543557
1.0286437 6.032474 -0.7574251 -2.526738 -0.05158073 1.3674946 0.4279462 -0.36553904

fc2.weight f4 [1, 32]
00000000: a78d 833f c746 993f 5a7d b6bf f8bf 813f
00000010: c39b 2abf 4249 b53e 19a7 6dbf 6fca 55bf
00000020: 8023 98be fe93 273f 466e 4840 8164 8dbe
00000030: 5e64 90bf 8316 23bf c924 e8be 48b3 27bf
00000040: 0ea5 12bf 9749 683f 51dd 47c0 0180 593f
00000050: 3faa 413f 82d1 a7be 0f3a c53e 96df 6dc0
00000060: 148f 30c0 1fcf 583f 2f04 24c0 816f 343f
00000070: afef d2bf d78c 633f aeac 1d3f c7a0 0ec0
1.0277604 1.1974725 -1.4257004 1.0136709 -0.66643924 0.35407454 -0.92833096 -0.83512014
-0.29714584 0.65460193 3.1317306 -0.2761574 -1.128063 -0.63706225 -0.45340565 -0.65507936
-0.57283103 0.9073729 -3.122883 0.84960943 0.756504 -0.3277703 0.38520858 -3.7167716
-2.7587328 0.8469104 -2.5627553 0.7048264 -1.6479396 0.8888678 0.61591613 -2.228563
