saved_100_episodes/checkpoint2.pth (torch_old, 3999 bytes, 3 tensors)

fc1.weight f4 [32, 23]
0.3154116 0.42522654 0.51253164 -0.36693153 1.0206225 -0.88703394 1.7371631 -0.92350876
-1.3299822 -0.5138896 -2.474487 1.3363775 -2.490348 -0.17464533 -0.719278 0.76539284
-0.41374552 -0.92233473 -2.2576778 0.6576314 0.78201205 -0.25051335 -0.74198264 1.9466926
1.5442133 2.1315212 1.3378685 -0.61677766 2.035765 2.2714345 1.8988749 0.25167048
-0.045604806 -2.3939767 2.7141087 -2.5010197 -1.9083016 1.71303 1.5214868 0.59504586
-0.5713057 -0.1436227 6.7217107 4.171779 3.2174854 2.7483628 1.064982 -0.08144011
-2.0373676 1.4344853 -0.942317 0.32536846 -0.920436 2.8417525 -2.0136473 1.342293
1.2370154 1.7358449 -1.0628195 -0.2898087 1.283697 -0.5295542 1.1216784 -0.4922141
-1.1222157 -1.3808352 -0.91800386 0.75441307 0.04253809 0.89190173 0.101506546 -4.2664413
0.51749974 0.70351213 -1.9248908 -3.1249359 -1.3513796 0.92492986 -2.2038755 0.46472627
-1.4205656 -2.600088 -1.1521258 1.654171 1.034499 -3.851164 -2.7483294 0.06560071
-1.574052 0.9603335 -0.61327493 -3.018946 0.31731164 -0.1134165 -3.2009938 0.8181849
-2.1910868 -1.8796673 0.06399192 -4.721681 -2.4563963 1.0272167 6.915857 1.3815371
-1.3910439 -0.41120845 1.1980367 0.7967075 0.7466897 -2.243789 0.70612884 0.56811583
-2.0388849 -2.1680868 2.377112 -2.1565244 0.80248654 3.7715144 -1.3549689 0.48606446
1.3090329 -1.7767252 -0.22889987 2.0240626 0.4318046 -2.2998116 0.044528436 -0.8265311
-1.1358197 -1.8172156 0.8704555 1.1154262 -1.441797 -2.0240839 1.7007399 -0.4002537
-0.6371026 -0.48202467 -0.9176361 -3.3504755 -6.8204575 -0.8239392 -1.3742368 2.0930288
-1.4583614 0.2084709 1.1114532 -0.43103784 2.1880186 2.2203958 -1.2870451 -0.049831502
-1.105661 -1.8706415 -0.88577956 -2.2783072 -0.13213536 -4.381334 -1.1293924 -0.17510277
-2.2457423 -0.83378184 -0.70218545 -0.09540183 1.6512233 -1.1593065 0.28505874 -0.4994654
0.51667285 1.032178 -1.5207521 3.094437 1.2784474 -2.3052893 -2.2141788 -0.72566175
-1.1665705 -1.7141839 -1.6403407 -0.6352747 3.4151287 -1.4554768 0.29060838 0.2934865
0.6387309 1.1510719 0.18437451 1.934402 0.41064754 -1.3644582 -0.051463574 -1.0577459
2.315939 -0.24212909 0.36680564 -1.9066528 -2.8984723 1.4540237 3.415881 -1.452069
-1.0321984 0.66415185 -2.1638906 1.3082643 -3.2058232 0.14813434 -0.1929683 -0.7737875
2.074572 -2.9093652 -0.49361342 2.4413366 0.47670472 0.17712948 -1.806813 2.473406
1.820529 0.20873238 -0.854796 0.09948196 -0.77129847 0.62549436 -0.35344437 0.60020983
-1.4597822 0.8450736 -1.681425 -1.3947172 1.2995554 0.3515552 -2.1865356 0.44759864
-5.1125 0.8710098 0.49539298 2.793073 0.39075977 -0.059123747 0.72781414 0.9813757
0.46210906 -2.171586 0.5571941 -1.1786002 -0.74835265 -1.5341282 -3.428078 1.9575559
0.79138464 0.44444135 -4.826004 2.8258846 0.24388552 1.3848641 -0.7057173 1.4612098
00000000: a17d a13e 4bb7 d93e 4635 033f 73de bbbe
00000010: c2a3 823f a814 63bf 5c5b de3f 126b 6cbf
00000020: db3c aabf 458e 03bf ff5d 1ec0 6b0e ab3f
00000030: dd61 1fc0 3ad6 32be 9a22 38bf c9f0 433f
00000040: 74d6 d3be 211e 6cbf cb7d 10c0 885a 283f
00000050: f131 483f 4943 80be 93f2 3dbf 392d f93f
00000060: c8a8 c53f d86a 0840 463f ab3f 24e5 1dbf
00000070: f949 0240 2f5f 1140 550e f33f f4da 803e
00000080: 1bcc 3abd ea36 19c0 f5b3 2d40 b510 20c0
00000090: 3a43 f4bf 9144 db3f 14c0 c23f ed54 183f
000000a0: 1741 12bf d411 13be 4118 d740 377f 8540
000000b0: 48eb 4d40 2de5 2f40 5551 883f 13ca a6bd
000000c0: 3b64 02c0 379d b73f b03b 71bf b296 a63e
000000d0: b2a1 6bbf 46df 3540 99df 00c0 42d0 ab3f
000000e0: 8556 9e3f 2a30 de3f 780a 88bf ce61 94be
000000f0: 2f50 a43f dd90 07bf 2893 8f3f 7d03 fcbe
00000100: c4a4 8fbf 35bf b0bf 4d02 6bbf 3721 413f
00000110: 6c3c 2e3d ac53 643f aae2 cf3d b086 88c0
00000120: dd7a 043f 5f19 343f d262 f6bf f3fe 47c0
00000130: 02fa acbf 34c8 6c3f 4c0c 0dc0 9af0 ed3e
00000140: 18d5 b5bf d767 26c0 dc78 93bf e0bb d33f
00000150: 776a 843f 7979 76c0 a1e4 2fc0 aa59 863d
00000160: 897a c9bf 6bd8 753f 96ff 1cbf 6936 41c0
00000170: ac76 a23e e946 e8bd 15dd 4cc0 9174 513f
00000180: c43a 0cc0 f098 f0bf 320e 833d 0318 97c0
00000190: 9935 1dc0 d67b 833f b34e dd40 35d6 b03f
000001a0: ba0d b2bf ea89 d2be 4459 993f 06f5 4b3f
000001b0: 0e27 3f3f 3d9a 0fc0 dcc4 343f 0a70 113f
000001c0: 177d 02c0 efc1 0ac0 9a22 1840 7f04 0ac0
000001d0: c26f 4d3f 7e60 7140 9f6f adbf 71dd f83e
000001e0: 648e a73f bb6b e3bf ba64 6abe 3e8a 0140
000001f0: 7e15 dd3e 1d30 13c0 7363 363d 8b97 53bf
00000200: 8a62 91bf 859a e8bf 2cd6 5e3f 49c6 8e3f
00000210: ce8c b8bf 978a 01c0 d8b1 d93f 0eee ccbe
00000220: 2819 23bf f0cb f6be 33ea 6abf 316e 56c0
00000230: 3041 dac0 aeed 52bf fee6 afbf 2ff4 0540
00000240: 96ab babf 6579 553e 1944 8e3f feb0 dcbe
00000250: 7f08 0c40 f71a 0e40 e5bd a4bf 1e1c 4cbd
00000260: 4d86 8dbf 2e71 efbf 73c2 62bf c9cf 11c0
00000270: 7e4e 07be e333 8cc0 ee8f 90bf 244e 33be
00000280: 3eba 0fc0 ba72 55bf 6dc2 33bf 0962 c3bd
00000290: 495b d33f 2864 94bf 38f3 913e eeb9 ffbe
000002a0: ac44 043f 691e 843f 01a8 c2bf 410b 4640
000002b0: 2aa4 a33f dc89 13c0 1bb5 0dc0 f8c4 39bf
000002c0: 2f52 95bf 616a dbbf aff6 d1bf 5da1 22bf
000002d0: 7891 5a40 104d babf 9fca 943e dd43 963e
000002e0: de83 233f 5356 933f accc 3c3e 7c9a f73f
000002f0: 6540 d23e 91a6 aebf 78cb 52bd 3864 87bf
00000300: 5838 1440 b0f0 77be f3cd bb3e 330d f4bf
00000310: 9280 39c0 731d ba3f cb9d 5a40 66dd b9bf
00000320: 141f 84bf db05 2a3f 2f7d 0ac0 3475 a73f
00000330: 352c 4dc0 87b0 173e 7b99 45be f016 46bf
00000340: cac5 0440 0a33 3ac0 e6ba fcbe dc3e 1c40
00000350: a412 f43e 6e61 353e a645 e7bf 494c 1e40
00000360: 1807 e93f f1bd 553e e9d3 5abf 33bd cb3d
00000370: d173 45bf 6620 203f a9f6 b4be 5aa7 193f
00000380: 25da babf be56 583f ef38 d7bf 1886 b2bf
00000390: d557 a63f 0bff b33e 33f0 0bc0 a62b e53e
000003a0: 9a99 a3c0 80fa 5e3f 26a4 fd3e b5c1 3240
000003b0: aa11 c83e be2b 72bd 0752 3a3f 703b 7b3f
000003c0: 8f99 ec3e 44fb 0ac0 46a4 0e3f 5fdc 96bf
000003d0: 0a94 3fbf 505e c4bf a165 5bc0 3191 fa3f
000003e0: 2f98 4a3f d18d e33e a06e 9ac0 4bdb 3440
000003f0: 20bd 793e 3a43 b13f e4a9 34bf ec08 bb3f

fc1.bias f4 [32]
-3.3091362 -5.034922 0.8076778 0.78957236 -2.2189932 -0.3820237 -2.3522272 -1.0348234
3.175892 -2.4275773 0.08476478 0.81736326 -0.44690102 4.2353563 -0.60236984 -3.1816833
-4.574114 0.70916766 -1.287147 -2.7138402 -1.335937 0.8678402 0.02944249 4.183203
0.08674951 -0.6836223 -3.9076698 -2.2403257 -0.97834545 0.32377058 -0.7136784 -0.38263822
00000000: e3c8 53c0 151e a1c0 f9c3 4e3f 6a21 4a3f
00000010: fc03 0ec0 9c98 c3be e48a 16c0 1875 84bf
00000020: d141 4b40 6d5d 1bc0 2899 ad3d b83e 513f
00000030: 36d0 e4be 0a88 8740 e934 1abf b3a0 4bc0
00000040: 245f 92c0 038c 353f 3cc1 a4bf 8faf 2dc0
00000050: fcff aabf c62a 5e3f 6031 f13c cddc 8540
00000060: baa9 b13d df01 2fbf 4317 7ac0 7f61 0fc0
00000070: d974 7abf 42c5 a53e a1b3 36bf 28e9 c3be

fc2.weight f4 [1, 32]
-0.115905635 -0.93561107 -0.7432644 -0.2985267 -1.5937287 -0.33839697 -1.0202878 -1.0098852
-1.484779 1.5149007 -0.07816824 -1.7119982 1.4511752 0.7978411 1.3425592 1.8770947
-1.7787335 0.41390127 -1.4464109 1.2765536 -0.10515206 -1.7200549 -0.046561826 3.3413205
-0.6212591 -2.090622 -3.1452353 0.4522017 -0.6664378 -0.9910918 0.41755968 0.90511656
00000000: ef5f edbd 3584 6fbf 9346 3ebf 7ed8 98be
00000010: 4dff cbbf 5e42 adbe ca98 82bf eb43 81bf
00000020: 3d0d bebf 44e8 c13f ac16 a0bd c222 dbbf
00000030: 1cc0 b93f 503f 4c3f fbd8 ab3f a444 f03f
00000040: 8aad e3bf deea d33e fe23 b9bf 1c66 a33f
00000050: f759 d7bd c22a dcbf 9db7 3ebd 32d8 5540
00000060: d60a 1fbf c0cc 05c0 894b 49c0 fb86 e73e
00000070: ab9b 2abf 31b8 7dbf 62ca d53e b8b5 673f
