saved_100_episodes/checkpoint4.pth (torch_old, 3999 bytes, 3 tensors)

fc1.weight f4 [32, 23]
00000000: c9e0 8abd c831 48bf a6cb 8cbf 9803 1c3e
00000010: 127b dd3e 331b 81bf 7f04 393f b0ef 49be
00000020: d2e7 933d a28b 913d f7fa ad3d 9fd8 6cbe
00000030: 9f6d 3a3c 6ba4 de3e 190e 863e be20 3b3f
00000040: e208 183e 8439 8c3b fbe8 aa3f 2afe 4abf
00000050: b4ff 43bf c9b7 0cbf 19e8 d6be 5e80 343e
00000060: 57a9 a13e fe8f 7b3e 2e3c d2be a154 0c3c
00000070: 819e 07bb 5782 d8be 5d30 aebb cbeb 18bf
00000080: 3dfb 8a3e b593 36bf 57a3 463e c6c9 3ebf
00000090: 45be 743f 0eaa ef3e c2a7 3c3e 39ca 313f
000000a0: 4745 e3be 9339 7a3e bbf2 783f ddd6 b73e
000000b0: 40fe bebe 590d 52be afdf a2bf 18b8 84be
000000c0: c077 913e 7a1d 003f e54c e93e 3848 c33e
000000d0: 4979 8abe 3bd1 8c3f df7d c7be a6b2 8b3e
000000e0: 6f6d f8bd 8128 24be a549 4a3c 2dac 023e
000000f0: 1be5 413f 5b46 b2be 8fd7 07be 12d9 123f
00000100: de1e b93d 97ec d4be 5735 66be 9e94 85be
00000110: 9a3d d9be 0f17 55be a3e9 633f 3833 8a3c
00000120: 5859 28be a38a a8be 80e8 64bf 588e e93c
00000130: 2de8 8a3d 247d 54bf 7480 443e 0c68 0e3d
00000140: 71bc 043f ba64 d7be f60e 09be b1c6 4f3f
00000150: bc6f 87bf 5289 f13e ac44 5b3e bc09 a2bc
00000160: bab8 3fbf 020b 08bf 5819 91be 8e54 4fbf
00000170: 410c 28bf 31d0 82bd b530 27bf 9a86 bc3d
00000180: aa51 ea3e 885b 70bd 0eae ef3e 010e 04bf
00000190: 1b0c 40bf 0bdb 2dbd bbd8 633f 4087 593f
000001a0: 4e67 9f3f 1a6a 583d af72 183f 3cd1 293b
000001b0: 822d 32bc b4b5 e93e 4d44 f43e e4fd 173d
000001c0: 229b 2dbf edb7 7e3d b17c 473e 3a99 d1be
000001d0: b862 5e3e e491 5bbd 7d6e e03d 5b1e 00bf
000001e0: 73a4 4abf 02a6 463e 16eb 90bf aa25 703e
000001f0: 3342 163f ccd1 d3be 7b84 373e b69b 1f3f
00000200: 2688 823e a845 01bf d751 393f ffce 71be
00000210: da06 e73b bba4 fc3e 60c2 39bf e1b5 f4bc
00000220: 1ae5 103f 0912 3c3c 4531 2f3f 94af 113e
00000230: 1907 20bf 79c8 6abf 084b c73e 09ec 9abe
00000240: f56e a73e b86a aebe 96c4 5dbe 3498 f3bc
00000250: 61af 12bf b8bc c5bc 77d1 3ebe 605e 49bf
00000260: 4bc8 8abe 42c6 2c3f 7916 91be aa29 8bbe
00000270: dc86 0e3f d19e 29bd 20f2 8b3e 4171 323c
00000280: 99f6 16bf 9fe3 e93e b112 283e 140c 01bf
00000290: 8d05 1f3f da27 d8bd 4d29 2cbc 25bf c83d
000002a0: 093b b2be ed0d 3ebe 5441 48be 5f2b 3dbe
000002b0: 5833 0fbd 2ef0 933e fc71 503f b404 93be
000002c0: 7f5f 8d3e 47df 5fbe d8ca 813d 5af3 abbe
000002d0: 1f18 e7be b1ab 713e feb6 22bf 0da5 133e
000002e0: 4ded cb3e 2a99 d7be 8485 60bf a951 ce3e
000002f0: 3117 a53e 8695 48bf 1b45 d63e eb11 61bd
00000300: 6acf d3be e97c 3d3d 704e d73e c163 fd3d
00000310: 17e8 31bf 81ed 143e 0033 fbbe 48b4 0abe
00000320: 5200 983f 18b9 453d ae17 273f 6b64 b53e
00000330: 41f9 ad3c aa11 6a3d e6c0 e2be e63c f23e
00000340: 8662 a13e ffc4 8d3f 3aea fabe 2ab0 893e
00000350: f2c7 ab3e 8b01 b73e 7fa0 0a3f da9b 123f
00000360: 9f30 443f a465 063f 5669 c5be a45d a0be
00000370: 7122 003f b11a 3a3f 439c 643f a7b7 5dbe
00000380: 4019 513e 0db2 8d3e 5f7e 5ebd 6a82 ab3e
00000390: 8151 fcbe 0d4b 693e 75ea 123f e1a1 8fbf
000003a0: fd17 d5be 7adf e43e e9be 673f d607 5abe
000003b0: 6742 d2be 4602 1a3e 12e5 f9bb ca3d 343d
000003c0: f8ea c6bd 241a c43e b553 0a3f bd06 f0be
000003d0: f412 17bf 5e78 343f c3c0 d8be 4e5a 99be
000003e0: 32bf 703f 1227 ed3d 470d 05bf f069 1c3e
000003f0: 0e61 303d db1b a9bf 34f8 78be 5727 20bf
-0.067811556 -0.7820096 -1.0999649 0.15235746 0.43257958 -1.0086426 0.72272485 -0.1972034
0.072219506 0.07106711 0.08495133 -0.2312951 0.011378675 0.43484816 0.2618263 0.73096836
0.14847139 0.0042793173 1.335235 -0.79294074 -0.76562047 -0.54967934 -0.4197395 0.17627093
0.3157451 0.24566647 -0.41061538 0.008565099 -0.002069384 -0.4228694 -0.005315824 -0.5973479
0.27144805 -0.71319133 0.19398247 -0.7452663 0.9560283 0.4680943 0.1842337 0.6944919
-0.44388792 0.24436025 0.9724538 0.35906115 -0.37303352 -0.20512904 -1.2724513 -0.25921702
0.28411674 0.5004498 0.45566478 0.38141036 -0.27045658 1.1001352 -0.3896322 0.27284735
-0.12130248 -0.16031076 0.01234666 0.12760992 0.7574021 -0.34819302 -0.13265823 0.57362473
0.090390906 -0.41586754 -0.22481285 -0.26089948 -0.4242981 -0.20809577 0.89028376 0.016870126
-0.16440332 -0.3291827 -0.89417267 0.028510258 0.06782565 -0.8300345 0.19189626 0.034767196
0.5185004 -0.42069036 -0.13384613 0.81162554 -1.0580974 0.4717508 0.21412915 -0.019780032
-0.74891245 -0.53141797 -0.28339648 -0.80988395 -0.656437 -0.063873656 -0.65308696 0.09205361
0.4576543 -0.05868104 0.4681248 -0.5158387 -0.7501847 -0.042445224 0.8900258 0.84972
1.2453401 0.05283556 0.59549993 0.0025912067 -0.010875108 0.4564644 0.4770836 0.037107363
-0.6781484 0.062187124 0.1948116 -0.40937215 0.21717346 -0.05360593 0.10958574 -0.5004632
-0.7915718 0.19399264 -1.1321743 0.23451868 0.5869476 -0.41371 0.17921631 0.6234697
0.25494498 -0.5049691 0.723905 -0.23614119 0.0070503773 0.4934443 -0.7256222 -0.029871883
0.5659958 0.011478909 0.68434554 0.14227134 -0.6251083 -0.91712147 0.38924432 -0.30258206
0.3270184 -0.34065795 -0.21657023 -0.029735662 -0.57298857 -0.02413784 -0.18634592 -0.7865963
-0.27105936 0.6749002 -0.28337458 -0.27180225 0.5567453 -0.041411225 0.27333164 0.01089126
-0.5897003 0.45681474 0.1641338 -0.50409055 0.62117845 -0.10554476 -0.010507894 0.09802083
-0.34810665 -0.1856 -0.1955617 -0.18473576 -0.034961075 0.2889418 0.81423926 -0.28714526
0.2761192 -0.21862517 0.063375175 -0.335841 -0.4513559 0.23600651 -0.63560474 0.1441843
0.39829484 -0.42109042 -0.8770373 0.40296677 0.32244256 -0.78353155 0.41849598 -0.05494873
-0.41369182 0.0462617 0.4205203 0.12372542 -0.69494766 0.14543726 -0.49062347 -0.13545334
1.1875098 0.048272222 0.6527051 0.35428175 0.021237018 0.057145752 -0.44287795 0.47312087
0.3152048 1.1075743 -0.49006826 0.26892215 0.33550984 0.35743365 0.5415115 0.5726906
0.7663669 0.5249884 -0.38556927 -0.31321442 0.50052553 0.7269698 0.89300936 -0.21652089
0.20419788 0.27674904 -0.054319736 0.33497936 -0.49280933 0.22782536 0.57389003 -1.1221277
-0.41619864 0.4470175 0.9052568 -0.21292052 -0.41066286 0.1503993 -0.0076261843 0.04400424
-0.097127855 0.38301194 0.54033977 -0.4688014 -0.59013295 0.70496166 -0.42334566 -0.2995171
0.9404174 0.11579718 -0.51973385 0.15274787 0.04306131 -1.3211626 -0.24313432 -0.6256003

fc1.bias f4 [32]
00000000: 7ce3 b6bf 23e4 20bc 6f00 863c 96e7 63bf
00000010: be7b 2c3e a262 8ebf 6bbe 4d3e b54f 303f
00000020: 369c 693c a8ff 5c3d 3441 3c3e 0c1c 3dbe
00000030: bb65 c9bb fbc4 003f 4092 bbbe 8bfa 883e
00000040: 0766 553e 58e4 43bf 6d21 d3bc d7c2 e63e
00000050: cefc 7bbd 7696 223f a6d5 9c3d ec13 39bf
00000060: f3b2 97bd fc1e 503e 0391 eebd b1e2 7fbf
00000070: 87c1 c8be f6c3 10bd 32de e63e 10c7 f0be
-1.4288173 -0.009820017 0.016357629 -0.8902525 0.16844079 -1.112385 0.2009217 0.68871623
0.014258435 0.05395475 0.18384248 -0.1846773 -0.0061461604 0.5030057 -0.36635017 0.2675365
0.20839702 -0.765203 -0.025772775 0.45070526 -0.06152039 0.63510835 0.07657938 -0.72296023
-0.07407179 0.2032432 -0.116487525 -0.9995528 -0.3921015 -0.035343133 0.45091397 -0.47026873

fc2.weight f4 [1, 32]
00000000: 9468 333f 370c 1e3f 2650 bbbd d122 cdbf
00000010: 2d7c 5d3e fb69 43be c773 d13e 5592 05be
00000020: 2502 223f 7f48 383e 1ed8 3f3f 8821 9e3d
00000030: f3f0 8abe f118 043f de70 253e ba93 ed3e
00000040: 4d9d 05bc 06ed fd3e e4b3 9cbe 7343 17be
00000050: 5205 54be 0e70 303f d67d 5ebe 2d7c f83d
00000060: e35f d0be aafe ffbd 65e6 313e 3588 2cbf
00000070: 854e 59be c241 81be 7ec6 1a3e c024 44bf
0.7008145 0.6173739 -0.091461465 -1.602625 0.216294 -0.19083397 0.40908644 -0.13044102
0.6328452 0.17996405 0.74939144 0.07721239 -0.27136955 0.5160056 0.16156337 0.4640177
-0.008155179 0.49594897 -0.30605996 -0.14771824 -0.20705155 0.6892098 -0.2172769 0.1213306
-0.40698156 -0.12499745 0.17373045 -0.67395335 -0.21221359 -0.25245482 0.15114781 -0.76618576
